MATHCNN4.pth (torch, 55009 bytes, 6 tensors)

conv1.weight f4 [8, 1, 3, 3]
00000000: 17a7 2a3f ae46 cb3e d92e 16bf 588b ce3e
00000010: ca55 46bc 8093 29bf 781d 63bd 21f4 033e
00000020: 4c1a f3bd 12f0 1b3f 4ac9 1f3d 49a4 e23e
00000030: 7782 9d3e c286 f43e a750 9b3e 9653 57bf
00000040: 1a3f 1dbf b377 35be 92a8 273b 37b8 5ebe
00000050: 50c3 37bf b042 ad3e af4a 43bd 9cb4 703d
00000060: 17d7 12be cefd b83e d392 343f 1b60 dabe
00000070: 528a 8ebd 53ff d73e 0582 42bf 2d0c 713e
00000080: 151b 013f 769a dc3e 8747 043f 18ce cf3e
00000090: f63b ca3d a76e 57bf 1463 c0be e56d 9d3e
000000a0: 8870 b0bd d579 ddbd ea85 123f 2215 093f
000000b0: 204e e33d b076 a4be fefd 4d3f d83f a2be
000000c0: 8668 dbbe f135 ea3e ad72 043f 1964 05bf
000000d0: 3921 e7bd eb73 ce3e df8a 1d3f 93e7 4f3e
000000e0: 2e94 b3be b8b5 fd3e 146f 3c3e 95d3 d6be
000000f0: 695a 0b3f 9014 ce3e ce9c 493e 44c7 2abe
00000100: a351 7cbe 4a5b b83e 1c35 c0be 2fee 643e
00000110: 9f19 ed3d 59fa eebe b9e3 dbbe e236 a23c
0.6666121 0.39702362 -0.58665234 0.40340686 -0.012105415 -0.6624069 -0.055448025 0.12886097
-0.1187025 0.60913193 0.039010324 0.44265965 0.307636 0.47759062 0.3033497 -0.84111917
-0.6142441 -0.17721443 0.0025582653 -0.2174996 -0.717824 0.3383994 -0.047678646 0.058765993
-0.14339863 0.36131138 0.70536536 -0.42651448 -0.06959976 0.42186984 -0.75979644 0.23539801
0.5043195 0.43086594 0.5167164 0.40586925 0.09874718 -0.8415322 -0.3757559 0.30747905
-0.08615214 -0.10814253 0.57235587 0.5354787 0.110988855 -0.321218 0.80465686 -0.31689334
-0.42853183 0.4574428 0.5173748 -0.5210586 -0.112856336 0.40322813 0.61540025 0.20303182
-0.3507399 0.49552703 0.18401748 -0.419583 0.5443483 0.40250063 0.19688722 -0.16677576
-0.24640517 0.36007148 -0.3754052 0.22356485 0.115771525 -0.46675375 -0.42947176 0.01980156

conv1.bias f4 [8]
00000000: b9e0 af3d 864d 31bc a9fb 6d3e 8b3b d03e
00000010: 184f 893c c6b0 fdbd 0ca4 66bc a375 60be
0.08587784 -0.010821706 0.23240532 0.40670428 0.016761348 -0.123872325 -0.014077198 -0.21919875

conv2.weight f4 [16, 8, 3, 3]
00000000: fe93 54be eb58 d6be e679 78bd 157d a0be
00000010: 6ef5 c3bb 1b70 cb3e 22a1 c0bd 84ed 243e
00000020: 91f7 8a3e 6823 d63b 4508 1d3e b629 cbbd
00000030: e1ec 85be 2059 babd d190 753e ba5b b73e
00000040: c500 8d3e f083 ae3d fa97 113d 4293 873e
00000050: 67be 083b 111f f93d 5124 3e3d 4be6 a8be
00000060: 31e2 f13d bf15 4abe 6fd6 77be c29a c5bb
00000070: 41ef d43d 720a dd3e 27c4 783e 1665 503e
00000080: d77e 133e c3e7 113e 1a4f d3bd 84b4 6dbe
00000090: 86ff b8bd 88c4 fbbd 22d3 3cbd 2dbd 1c3e
000000a0: 068e 873d d80d 96be d4da 0a3e 161a d9be
000000b0: 0db3 b0be 2a9b 89be dcbd 9e3c 6e54 d3bb
000000c0: 5186 77be 528e d83d aec3 babe f594 15be
000000d0: fd04 49be 7062 02bf 423e 6cbe dc6b a9bd
000000e0: de1e d3ba ff5f 5abd 64c7 113e d296 1bbd
000000f0: 9110 313d de67 52bd d8e1 013d c445 b3bd
00000100: 6507 85bd 3a21 98bd 83e1 debd b61b 40bd
00000110: 3b00 41be 78d5 443e cafe 5dbe 6b43 0cbe
00000120: 8c56 ffbe 678b b2be 52bc 963e e90f b0be
00000130: 9c97 b0be 4618 9bbe 2ff4 463e 3ec7 35be
00000140: 828c a2be 8957 163e 7e15 9c3e 36f4 ae3e
00000150: 3667 48be 83f8 1dbe ab6d a1bd f046 1e3e
00000160: f8bc 9c3d efd9 363d 5710 d6be 2c1b 00bf
00000170: ea24 24bf c896 863e d93e 893e dccc 86bb
00000180: ab6b f23d cfd4 ce3d 503d 413e 75a2 05bf
00000190: 94a1 1d3b 4063 8a3d 5664 a9bd c294 dfbe
000001a0: 1801 c2be e442 7a3e 7f8f f03c 4b46 603c
000001b0: 4d18 c4bd fc17 27be f415 16bf 2d6a 8e3e
000001c0: 5b0b ad3e b2e9 b03d c8ba 2b3e b1c0 573e
000001d0: d9a7 983e b024 dcbe e3ee e63e f839 86bd
000001e0: 3fbf a0be dca9 16bf 8819 acbe cee5 bc3e
000001f0: 2863 9f3e 25c7 7e3e 7898 1ebf b867 31be
00000200: e647 b13d bd6e f1bd 62d5 53bd faf7 a7be
00000210: e41a 6d3e eff0 483e 8651 a93e 6248 7c3e
00000220: 0d82 753e a613 133e a147 8dbe 7f30 0cbe
00000230: e30f cdbd dcee ecbd c3da 8fbc 82e4 31be
00000240: da7a d53d 5d2e ef3c 14d7 a23e 7d44 fdbc
00000250: 9a27 cc3d abd6 733e 69d1 57be 07c0 e93d
00000260: 1a21 373e 7caf 62bd 326c 44be 736b 83be
00000270: 594d 293e af81 a03d 6330 04be 22a3 a1be
00000280: bf06 59be b681 07bd 1eed f03d 712e 30be
00000290: ecea 96be f3ad 76be 8a45 54be f09b 4abd
000002a0: b89a d9bd f509 62be bd06 373c 96e2 aebd
000002b0: 295a 5c3e 9ea7 42bd efe2 84be c3d9 093e
000002c0: 951f 9cbd e0d2 9ebe 2604 f03d f0e7 d4bd
000002d0: a97f d83d 318e 77be aa1a f9bd 671f a0bd
000002e0: f017 acbe 3cef 603e 71a4 a4bd ae58 40be
000002f0: 4e8f 443e 09c1 81bd 83b0 253e a3ac abbc
00000300: 3868 acba 85c1 1f3e 8078 c03d e060 cabd
00000310: 095a ca3e 93b3 c83e cc76 87bd 7dc8 563d
00000320: 07a1 ed3d 58e5 afbd 9f80 303e fd36 983e
00000330: 9f82 f2be 6d0f 22be 2ad3 953d 04ea 89be
00000340: 95bc b13d 7ff0 a0bd bd01 f8bd 48a5 0f3e
00000350: 40e4 043d 1bc0 9b3d ec82 893d 72c4 c5bc
00000360: 62c4 ecbd 10cb e5be 1879 41bd 0709 b3be
00000370: 577c 08be 0ead 8b3e b79f febe c691 843e
00000380: 78e9 d33e 022a b43e 85bf 233e 54d1 12bd
00000390: 385f 26be 8eed 13be 2284 40bd 96a3 3bbe
000003a0: 0454 e0bd 40ce 7abe b1fb 4bbe 4a31 bf3c
000003b0: eb06 043c c7d2 e83d cb37 d03d 5280 81be
000003c0: 4a4f 6a3e 53e6 54bd 2b0b c1be 41fd 8fbe
000003d0: 15b4 ba3d 7694 803e 8f7d d1bc e693 8e3e
000003e0: 4cc4 a83e 1b8a cb3e 9c50 453e 0465 a43c
000003f0: 1f35 02bc 1f8e 42be d6bf 8dbe 1c5f 31be
-0.2075958 -0.41864714 -0.060663126 -0.3134543 -0.0059801852 0.39733967 -0.09405734 0.1610623
0.27142003 0.0065349825 0.15335186 -0.09920065 -0.26157287 -0.090990305 0.23981024 0.3581217
0.2753965 0.08521259 0.035545327 0.26479536 0.0020865442 0.121641286 0.046421353 -0.329882
0.11810721 -0.19734858 -0.24202894 -0.0060304115 0.103971966 0.43172032 0.24293576 0.20351061
0.14403854 0.14248566 -0.10317822 -0.23213392 -0.09033112 -0.12293345 -0.04609979 0.1530654
0.06618886 -0.29307437 0.13560039 -0.42402714 -0.34511605 -0.26876193 0.019377641 -0.006449274
-0.24172331 0.105740204 -0.36477417 -0.14607604 -0.19630809 -0.50931454 -0.23070624 -0.08272526
-0.0016107222 -0.053314205 0.14236218 -0.03798563 0.04322869 -0.051368587 0.031709522 -0.08753541
-0.06495551 -0.074282125 -0.10882857 -0.046901427 -0.18847744 0.19222057 -0.21679226 -0.13697593
-0.49870718 -0.3487198 0.29440552 -0.34387138 -0.3449067 -0.30291957 0.19429086 -0.17751786
-0.31747824 0.1468183 0.30485147 0.34170693 -0.19570622 -0.15426831 -0.07882246 0.15456748
0.076532304 0.04464143 -0.4180934 -0.5004146 -0.64118826 0.26286912 0.2680576 -0.0041137766
0.11836942 0.10099184 0.18871045 -0.52201015 0.0024052607 0.06757212 -0.08271091 -0.4366818
-0.3789146 0.24439579 0.0293653 0.013688634 -0.095749475 -0.16317743 -0.5862725 0.2781538
0.33797726 0.08638324 0.1677047 0.210696 0.29815558 -0.4299674 0.4510413 -0.065540254
-0.3139591 -0.58852935 -0.3361323 0.36894077 0.31130338 0.24880655 -0.619514 -0.17324722
0.08656292 -0.117887 -0.05171717 -0.3280638 0.23154789 0.19623159 0.3307001 0.24636987
0.23975392 0.14362964 -0.2759371 -0.13690375 -0.10012796 -0.11568996 -0.017560368 -0.17372325
0.10423823 0.029196912 0.31804717 -0.030916447 0.09968491 0.23812358 -0.21075977 0.114135794
0.17883721 -0.055343136 -0.19181898 -0.25667915 0.16533412 0.07837235 -0.12909083 -0.31569773
-0.2119398 -0.033082686 0.117639765 -0.17205216 -0.29476106 -0.24089794 -0.20729652 -0.04946512
-0.106252134 -0.22074111 0.01117104 -0.085393116 0.21518768 -0.047523133 -0.25954387 0.13461976
-0.07623211 -0.3102026 0.11719541 -0.10395801 0.10571224 -0.24175335 -0.12163289 -0.078184895
-0.33612013 0.2196626 -0.08039177 -0.18783829 0.19195291 -0.06335647 0.16180615 -0.020956343
-0.0013153618 0.15601166 0.093979836 -0.09881759 0.39521816 0.39199504 -0.066144556 0.052437294
0.11602979 -0.08588666 0.17236565 0.29729453 -0.4736528 -0.15826197 0.07315667 -0.26936352
0.08678547 -0.07858371 -0.121097066 0.14027894 0.03244424 0.076050006 0.067144245 -0.024141524
-0.115608945 -0.44881487 -0.047234625 -0.34967825 -0.13328682 0.27280468 -0.49731228 0.25892466
0.4138906 0.351883 0.15991028 -0.035844162 -0.1624726 -0.14446089 -0.04700101 -0.18324122
-0.10953525 -0.2449274 -0.19920231 0.023338933 0.00805829 0.113683276 0.10166892 -0.25293213
0.22881809 -0.051977467 -0.37703833 -0.28122905 0.09116379 0.25113267 -0.025572566 0.27847213
0.32962263 0.39753804 0.19269031 0.0200677 -0.007947235 -0.18999527 -0.27685422 -0.17321438

conv2.bias f4 [16]
00000000: 0441 c43d e491 af3d 1e43 83be 8139 debc
00000010: fea0 a3be 0a65 aabe c4ca 1bbe a77c b6bd
00000020: f729 23be 8314 8e3c cef7 03be 8e77 8fbe
00000030: c848 22bd 6280 05be 51f1 ebbd 415e 90bd
0.09582713 0.08572748 -0.25637144 -0.02712703 -0.31958765 -0.33280212 -0.15214068 -0.08910494
-0.15933977 0.017343765 -0.12887499 -0.280209 -0.03962019 -0.13037255 -0.11520637 -0.070492275

fc1.weight f4 [15, 784]
00000000: a3b7 5fbc a422 e6bd 850f d13d 6813 6e3d
00000010: bb84 0fbe 7290 1ebd 9d94 d93d 4bd4 4cbd
00000020: f3d9 f8bd c51f 293d 764e 9dbd 6b22 c6bd
00000030: eb56 fabd 7762 423d fa34 b2bd 6fd9 0a3e
00000040: ea71 b23c a0a9 2bbc 4aba 36be 6fb3 89be
00000050: 76eb 1bbe 065f 09be 586c 3a3d a938 833d
00000060: 9d3a aebe 98e4 abbd 5d7f 0d3b ced5 2fbe
00000070: eabd 433d a282 413c 9fab 1cbd 9ac8 593d
00000080: 4322 e83d f5ee e43d a623 fcbe d290 0ebd
00000090: f22a b9bd 3776 2abd 72b5 143d c3c6 ca3d
000000a0: 177d c43c 2027 c53d d3ce 38bc f787 28be
000000b0: fd57 18bf f8bf a6be c5f8 59be 4f8a ce3c
000000c0: 6c19 2b3d e0b4 cd3d 21c2 4dbc 0345 c73b
000000d0: 2b9e 47bd e916 443d 565e 5dbc 7753 e83d
000000e0: f217 51bd d19a 5c3d 2b2c 51bd 467a f53b
000000f0: a149 273d 3628 de3c 6c20 893d 473a 073d
00000100: 771a 82bb 6f58 8d3d 1450 13be 04cb f1bd
00000110: 7fd1 91bd df4a 443d 463c 05be 2547 c5be
00000120: 7b94 b8be e455 4bbe 5421 82be d427 4ebe
00000130: a023 febd 7489 13be f0c7 2cbf ab8b b7be
00000140: 320a 8bbc 45dd f23d 5a46 14bd 82e9 8bbe
00000150: 5513 cabd a8da d4bd 7b42 f9bd dcc1 e6bc
00000160: 988d db3d fb08 f53c 154d a53d d060 b03d
00000170: 7fcf fc3d b883 0dbb a94c c9bb df1e 153e
00000180: 38db 003e fcbd cf3d 58b0 b2bd 23e4 1cbd
00000190: 0d4e 01be 4788 303c bbdf 58be e092 ce3d
000001a0: 1b43 8e3d 6977 05be 0d00 1ebd 893f 3dbe
000001b0: 4a9c bebe ccc6 65bc 19ba cebd 05a5 fc3c
000001c0: 0334 1fbd aa91 ef3c 1d30 8bbd e1d9 4cbe
000001d0: 180a 2f3e 23c5 0e3e 8ae5 803d 2613 07be
000001e0: 9bac a13d 6412 4ebd 33fd 11be e456 1a3e
000001f0: 35b4 ab3d 6844 1a3d 6cda 533d 1674 063d
00000200: 598c 383d ea1d 2abe c475 a9bd 8a83 b5bc
00000210: 86cf 373d 931f fb3d 97cd 813d f65e 2c3e
00000220: 8cdb 48be 49b0 b6be be20 69bd ea3a cb3c
00000230: 0526 04bd 3ff8 bbbc 5621 97be 6b21 cfbe
00000240: cca2 973d 8572 3abe 5a53 1a3d 7bad 2bbd
00000250: 9ce1 333d bd79 96bd 8ae4 09be c3e0 0ebe
00000260: 6d9c ffbd 9e54 0cbd 668b d7bd f5cf 6fbc
00000270: 3e13 2f3d cdfe 463d a505 e0bc f2ee 9cbd
00000280: 5c55 41bc a119 a8bd e835 00bd 937f 6d3d
00000290: 0901 6a3d e22c 01be b348 eb3d ddb9 f6bc
000002a0: 94cf e6bd 6f81 093e 97e4 313d 8b9a dabd
000002b0: e080 043e cf64 0f3e 04fb f1bd 279c 263a
000002c0: 064a 9e3d f7c1 eebc fade e73b 0d5d 6e3d
000002d0: d5ec e63c 5a29 5f3c 397d cd3d de1b 24bc
000002e0: 9e9a 01be 3be6 afbe 078a 28be 212c f9bd
000002f0: e292 d83c 265b 3fbb fbb7 fdbc 9b82 53bd
00000300: e68a c8be 3eed adbe fb9c 0fbe c14b b73d
00000310: 042f bc3a c65d 2dbd 697b a4bd 150d 033d
00000320: 473a 4cbe fbaa 99bc 390b 953b a879 003d
00000330: fbfd 8ebd c5f5 dbbd 8641 4abd 0d1a 623d
00000340: 8440 c33c 4e3b 8b3c 1856 733c 20e3 f03d
00000350: 31a5 d7bc dc2d 6abc f989 013e 7f5a c13d
00000360: 0a9f 52bd a46b 54bd 0f38 de3d e693 4a3d
00000370: 8853 0dbc 6511 8d3d d4e1 cc3d 4c79 053e
00000380: eece 3dbd 9476 063d 916f 9c3c 69dc e13d
00000390: 8268 cfbd 5e63 f63b 9c97 5a3e 01bb afbc
000003a0: f7e5 f0bb 60a0 ca3c 2af2 df3d 47f3 5bbe
000003b0: e3b3 2cbe fb75 3bbe bd36 473d 84bb df3c
000003c0: ef2d 183e 4932 5ebd d028 afbe 31ff abbe
000003d0: acb4 2cbe 2195 f1bc da59 24be ce72 57bd
000003e0: 59f5 a23c 3d38 50bc 3780 b0bd d2b1 053d
000003f0: e17a 863b 9d11 9fbd 9c4e d1bd 8af4 943d
-0.013654622 -0.11237076 0.10208038 0.058123976 -0.14015476 -0.038711973 0.10624049 -0.050007146
-0.121509455 0.041290063 -0.07680981 -0.096745335 -0.122236095 0.047457185 -0.08701511 0.13559507
0.021782834 -0.0104774535 -0.17844501 -0.2689471 -0.1522654 -0.13415155 0.04551348 0.064072914
-0.34029093 -0.0839321 0.0021590807 -0.17171404 0.047788538 0.01181093 -0.038249608 0.053169824
0.1133466 0.1117839 -0.49245948 -0.03480608 -0.09041394 -0.041616645 0.036305852 0.09901192
0.023985429 0.09626603 -0.0112797795 -0.16458116 -0.5950926 -0.32568336 -0.21286304 0.025212435
0.04177229 0.10044265 -0.012558491 0.006081225 -0.048734825 0.04787341 -0.013511261 0.11344045
-0.051048227 0.053858582 -0.051067512 0.007491383 0.040841702 0.027118783 0.06695637 0.033014562
-0.00397044 0.06901633 -0.14386016 -0.118063 -0.07120036 0.047922965 -0.13011274 -0.3853084
-0.36050782 -0.19856983 -0.25416052 -0.2013238 -0.12409139 -0.14407903 -0.6749258 -0.35848746
-0.016972635 0.1185861 -0.036199905 -0.2732659 -0.098669685 -0.10393268 -0.12170883 -0.028168611
0.10720366 0.029911509 0.08071343 0.086122155 0.12344264 -0.0021593403 -0.006143172 0.14562558
0.12583625 0.101436585 -0.08725041 -0.038303506 -0.1262743 0.010774679 -0.21179096 0.10086608
0.06946393 -0.13033833 -0.038574267 -0.18481268 -0.37228614 -0.014024448 -0.10094089 0.030840406
-0.03886796 0.029244263 -0.06796286 -0.20004989 0.17093694 0.13942389 0.06293781 -0.13190898
0.0789425 -0.050310507 -0.14256744 0.15072209 0.08383981 0.037662894 0.051721975 0.032825552
0.04505572 -0.16612974 -0.08274415 -0.02215745 0.044875644 0.12261882 0.06338041 0.168331
-0.19615 -0.3568137 -0.05691599 0.024808366 -0.03226282 -0.022945521 -0.2951762 -0.40455183
0.07404098 -0.18207748 0.037677146 -0.04191349 0.04391633 -0.073474385 -0.13466087 -0.13952927
-0.12481008 -0.034260385 -0.10524635 -0.014636983 0.04274296 0.04858284 -0.027346442 -0.07662763
-0.011800136 -0.08208013 -0.03130141 0.057982992 0.057129893 -0.12614778 0.11488476 -0.030117923
-0.11270061 0.13428281 0.04343089 -0.10674008 0.12939787 0.14003299 -0.118154556 0.0006355666
0.077289626 -0.029145224 0.0070761414 0.05819421 0.028189102 0.013620699 0.1003365 -0.01001641
-0.12656638 -0.3435534 -0.16458903 -0.1216662 0.026437227 -0.0029198616 -0.030971518 -0.051638227
-0.3916847 -0.33970064 -0.14024727 0.08949996 0.0014357273 -0.042325757 -0.08031351 0.031994898
-0.19944106 -0.018758288 0.004548457 0.03136602 -0.06982037 -0.10740236 -0.049378894 0.055200625
0.023834474 0.016996052 0.014852069 0.11762071 -0.026323887 -0.01429316 0.12650289 0.09441089
-0.051421203 -0.051860467 0.10850536 0.049457453 -0.008625872 0.06888083 0.10004011 0.13034552
-0.04633992 0.03282793 0.019096168 0.11028368 -0.10127355 0.0075191697 0.21346897 -0.021451475
-0.0073516327 0.024734676 0.10934861 -0.21479522 -0.16865496 -0.18306725 0.048636187 0.027311094
0.14861272 -0.054247174 -0.34210825 -0.33593133 -0.16865796 -0.029490056 -0.160499 -0.05259972
0.019892382 -0.012708721 -0.08618205 0.032640286 0.004104004 -0.07767031 -0.10220072 0.072732046

fc1.bias f4 [15]
00000000: 8ca7 7f3d c2a5 e63d 029e 81ba 2797 123b
00000010: fee2 45bd 367f 3f3d d929 013d f9a4 95bc
00000020: 6874 e6bc 156e 63bc b6c4 e3bc 6bae a5bd
00000030: ea05 7b3c 162d 19bd 5a1d 23be
0.062415645 0.112620845 -0.0009889009 0.0022367926 -0.04831218 0.046752177 0.03153405 -0.018267142
-0.028131679 -0.013881226 -0.02780376 -0.08089908 0.015321234 -0.037396513 -0.15929165
