MATHCNN2.pth (torch, 55009 bytes, 6 tensors)

conv1.weight f4 [8, 1, 3, 3]
00000000: 9502 00bf 219c e5be 04c1 b63d f97b 8c3e
00000010: 8b62 9d3e d94e 023f 310a 3b3e 9421 353e
00000020: b7bb 58be 598f a33e ea8e fb3e a869 723e
00000030: fcf9 c73e 1c8e 993e cddc b1be 6e34 99be
00000040: beb6 e0be 2480 22bf 07c1 2fbf 0f01 703d
00000050: 307b 2a3f 65ea 0f3e 76b2 903e d7f4 2abd
00000060: 1cb1 143e a8f6 dfbd 4728 efbe 9774 0ebe
00000070: dd47 c13e 20ad 623f 27fe 35bf bf96 12bf
00000080: e60b 653e b54f 5d3d 0fe5 a7be 52a6 2cbf
00000090: 6210 fa3e af5c 523f 4ef7 0e3f 4106 abbe
000000a0: cec9 cfbd 3ad6 fc3e eec9 1cbf c2c1 4cbe
000000b0: 4854 3cbd f272 9abe 7497 ddbe 3fe5 edbe
000000c0: eb64 553e b4e7 e23d e210 773e 716a 083f
000000d0: dcab 043f 13b9 033f 0d38 93be 8f83 973d
000000e0: c54d ae3c 10f0 aa3a c7da e6be 6ee0 d3be
000000f0: be5e ed3e 73b0 d83e b298 d13e 5d48 d83d
00000100: 9ac8 fb3e 1686 ae3e 9da2 e73e b3da c43e
00000110: 6c0d 0d3f ba3d 173f f0aa e03e af47 f03e
-0.5000394 -0.4484568 0.089235336 0.27438334 0.30739245 0.5090156 0.18265606 0.1768859
-0.21165358 0.31945303 0.49132472 0.23673117 0.3905791 0.29991233 -0.3473877 -0.29922813
-0.4388942 -0.6347678 -0.6865391 0.05859476 0.6659422 0.14054258 0.28261155 -0.041737404
0.14520687 -0.10935718 -0.46710417 -0.13911663 0.3775014 0.8854542 -0.7109093 -0.5726127
0.2236782 0.054031093 -0.32791945 -0.67441285 0.48840624 0.82172674 0.55846107 -0.3340321
-0.10145913 0.49382192 -0.6124562 -0.19995788 -0.045978814 -0.3016582 -0.43279612 -0.46463963
0.20839278 0.1107935 0.24127534 0.53287417 0.51824737 0.51454276 -0.287537 0.0739814
0.021277318 0.0013041515 -0.4508879 -0.41382164 0.46361345 0.4232212 0.4093681 0.10560677
0.49176484 0.34086674 0.45241252 0.38448104 0.55098605 0.5907856 0.43880415 0.4692969

conv1.bias f4 [8]
00000000: a914 a1bb 803f 2c3d bddd bfbb f417 bf3e
00000010: 670b c2be b06e e0be b2e7 a9bd ae5a edbd
-0.004915793 0.042052746 -0.0058552907 0.37322962 -0.37899324 -0.43834448 -0.082961455 -0.115895614

conv2.weight f4 [16, 8, 3, 3]
00000000: 65cd c23d 3255 523e 5e46 313d deb1 b3be
00000010: ef81 a6bb ca7d efbe fc4b 75be c1b7 12bf
00000020: d27c 43be ed55 673e 4ac4 a33e 3a60 d33e
00000030: 3fef e83d 65f5 2d3e 19b2 33bc 423d 3ebe
00000040: 35ea 353e 1408 d3be 39b6 e13d bea1 9b3e
00000050: 4dc7 8c3e 2d0f a23c 6d15 64bc a955 d5be
00000060: 6426 06bd 30c7 bfbe 5f0a 18bf 1331 ad3e
00000070: 6597 553e f191 2e3e 2788 cf3e cfec 4f3e
00000080: 9a00 a33c 75cb 9e3e 91af 8d3e 8ad7 803e
00000090: bb57 7c3d 251a 0f3d a8e4 0d3d 8109 803e
000000a0: f4a9 2abe 743c 08bf e724 3bbd 0713 f63c
000000b0: 2fe7 0ebf 0ae9 8fbd e1cc f43c 5a4e 13bf
000000c0: 4511 7bbe 4412 a93a 2ae0 3cbe 553c a7be
000000d0: d847 e8be f61c 203c ee7e 2a3e 711b d6bd
000000e0: fd4b 26bf c973 16bf b6ea edbe da93 c0be
000000f0: 8379 20be 126b 6ebe 3143 c03d 37fa 2c3e
00000100: 3940 833e 78cf 74bd f0dc 31be e3d8 d2bd
00000110: 2c75 f1be 9b42 eabe 4cd8 0abf 12ac adbe
00000120: 3c22 ae3d 97b3 6c3e 23a8 653e ddeb 36bb
00000130: ef89 253e 5679 013d 3d94 8d3d 51a6 b23e
00000140: 93a2 b13e 4ccb 593e 2fd0 3fbe dfec fcbd
00000150: fe15 8a3e 04eb b13e 2a46 bb3e 5afd 42bd
00000160: 72f5 77be 8cd3 8abe d459 5dbd 477e 10bd
00000170: 16d0 b23c e4b9 283e 9884 103e a9f1 7c3e
00000180: 0926 cebd 09a7 c6bd bf51 03be 2c91 b2be
00000190: 030e d9be 3c55 71be 8152 9b3e 6c33 373e
000001a0: 027d 923e fdab 7dbd bfbb ea3d 6f9c 203e
000001b0: b15b cf3d 77f5 71be 8cdd 05be e664 cf3d
000001c0: bb46 143e 269f 7b3e 7edc aebe e979 6ebd
000001d0: a31c ce3d d316 00bd 4133 353e 7ca4 cb3d
000001e0: 7182 dfbe cdab 64be 661b 86be 0219 a93e
000001f0: 0a59 c33e fef4 b53e 5042 fabd c36c 0a3e
00000200: b008 833e bbb8 88bd 66d2 433e 2b7a 43bd
00000210: cc7b c33e 8b1d fe3e 801c 123f 7bb6 b4bd
00000220: 1168 89b9 3c05 c4bc e211 62be 0cfc 9dbd
00000230: 5336 29be 6aa4 073d bf21 fbbd f548 7ebe
00000240: 02e7 6a3e e38f 1f3e 3317 453e 4522 e1bb
00000250: 4101 ae3e a9c9 ce3e acf3 a63e a145 673e
00000260: f253 433e 9b7d 7e3d fc0f 723e e00c 683c
00000270: 5120 40be 7f2f 00be d6be 9abe 1faa af3d
00000280: b2a0 1f3e 6242 b7bd 0816 a03e ee66 e13e
00000290: 0c8c 2ebd 34a1 353d a6bc 203e ac8e 3a3e
000002a0: bf04 8a3d 92fb 1a3e f099 edbd b9ec 1a3e
000002b0: 7b12 0cbe 6496 c4be 0b68 8dbe 40c5 04bf
000002c0: ecb7 43bf 019b 11be e4e0 cb3d 1816 503c
000002d0: 67c8 a1bd 61f0 1fbe b938 ccbd b476 65be
000002e0: 07db 49be f888 72be 9560 83bd a6a2 e93d
000002f0: 3800 9c3e beb2 aabb 26b9 0e3e a64b 1f3e
00000300: effe fc3d eec1 e13e 1074 b23e 7268 18be
00000310: c6b4 b73d bc05 443d feac 113e 0a5d 6c3e
00000320: 223f 973e 1a22 ba3e 4de8 f43e ab50 613e
00000330: 0285 3a3d 4474 af3c c7b0 10bd 79ea 063c
00000340: 4d2d c4bd 476c 903d 63d1 de3b 7558 4cbd
00000350: 6b66 05bc 22ce b43c c6ce a3bd 18c4 73bd
00000360: 6803 c9bd 916f aa3d 460b 8b3e aef7 9a3d
00000370: a7bf 8fbe 270f 50bd 2357 b33e fa6d b4be
00000380: 4f0a c83d df4d 8ebe da51 2e3e 622c 5dbe
00000390: 63ec 5dbe 148a cebc ea70 dfbe 4e33 aebe
000003a0: 5a47 6a3b 7f1d 193e 6f78 2b3d fbaa 093e
000003b0: 1ba8 7c3e e096 ad3e 7c1f 33bd 982b fa3e
000003c0: 515a a43e 2279 0d3e 61b3 213e 96e3 14bf
000003d0: c50e fdbe 80bf c23e 27cd 5cbd 0f67 69bf
000003e0: b9f4 403f 6e68 6a3e 4ee1 47be 2953 983e
000003f0: b1a0 d63e 4c64 03bf 1ad8 17be 3104 cb3e
0.09511832 0.20540312 0.043279998 -0.3509664 -0.0050814073 -0.46775657 -0.23954767 -0.57311636
-0.19090584 0.22591372 0.31985694 0.41284353 0.113737576 0.16988142 -0.010967755 -0.18578056
0.17765124 -0.412171 0.11021084 0.30396837 0.27495804 0.019782627 -0.013921124 -0.41666916
-0.032751456 -0.37456656 -0.59390825 0.33826503 0.20858534 0.1704786 0.40533563 0.20305179
0.019897748 0.310146 0.2767301 0.25164443 0.061607104 0.034937043 0.03464189 0.2500725
-0.16666394 -0.53217244 -0.04568949 0.03003837 -0.5582151 -0.070268705 0.02988285 -0.5754143
-0.24518307 0.001289912 -0.18444887 -0.32663217 -0.45367312 0.00977253 0.16649982 -0.10454453
-0.649597 -0.58770424 -0.46468133 -0.37612802 -0.15671353 -0.23283032 0.09387816 0.16892324
0.25634935 -0.05976817 -0.17369437 -0.10295274 -0.47159708 -0.4575394 -0.5423629 -0.33920342
0.085026234 0.23115383 0.2242742 -0.0027911582 0.16165899 0.031609856 0.0691304 0.34892514
0.34694347 0.21268958 -0.1873176 -0.12349867 0.26969904 0.34749615 0.36576968 -0.047604896
-0.24214724 -0.27114522 -0.054040745 -0.035276677 0.021827739 0.16477162 0.1411308 0.24701561
-0.100658484 -0.09699828 -0.12824152 -0.34876382 -0.42393503 -0.2356767 0.30336383 0.1789071
0.28610998 -0.0619316 0.11461591 0.15684675 0.101249106 -0.23628794 -0.13072795 0.10126667
0.14480107 0.24572429 -0.34152597 -0.05822173 0.10064056 -0.031271767 0.17695333 0.09943482
-0.43654206 -0.22331162 -0.26192778 0.33026892 0.3815387 0.35538477 -0.12219679 0.13518052
0.25592566 -0.066758595 0.1912323 -0.04772393 0.38180387 0.49631914 0.5707474 -0.08823868
-0.00026208212 -0.023928277 -0.22077134 -0.0771409 -0.1652463 0.03311578 -0.12262296 -0.24832518
0.22939685 0.15582232 0.19247131 -0.0068705403 0.33985332 0.4038823 0.32607782 0.22585155
0.19074991 0.062131505 0.2363891 0.014163226 -0.18762328 -0.12518118 -0.3022372 0.0857737
0.15588644 -0.089482084 0.31266809 0.44023842 -0.042614028 0.04434319 0.15696964 0.18218488
0.067391865 0.15135029 -0.11601627 0.15129365 -0.13678925 -0.3839599 -0.2761844 -0.5186348
-0.7645252 -0.14219286 0.09955004 0.01270058 -0.07899552 -0.15619041 -0.099717565 -0.22408563
-0.19712459 -0.23685062 -0.06414906 0.11407976 0.30468917 -0.005209296 0.13937816 0.15556201
0.12353312 0.4409327 0.34854174 -0.14883593 0.08970027 0.04785703 0.14226148 0.23082367
0.29540354 0.36354142 0.4783348 0.22003429 0.045537002 0.021417744 -0.035324838 0.008234614
-0.09578953 0.07051902 0.006799863 -0.049889047 -0.008142094 0.022070948 -0.07998423 -0.05951318
-0.09815103 0.08322061 0.27157038 0.075667724 -0.28075907 -0.0507957 0.35027418 -0.35240155
0.09767591 -0.27793786 0.17023411 -0.21598962 -0.21672206 -0.025212325 -0.43640834 -0.34023517
0.0035748095 0.14952658 0.0418629 0.1344413 0.24673502 0.3390417 -0.043731198 0.48861384
0.32100156 0.1381574 0.15791084 -0.5815977 -0.4942533 0.38036728 -0.053906586 -0.9117288
0.7537342 0.228914 -0.1951954 0.29750946 0.41919473 -0.51324916 -0.1482853 0.39651635

conv2.bias f4 [16]
00000000: 2ffb 5b3e fcb1 37be 39c4 53be ad8a dfbd
00000010: c512 ca3d a4b5 02be 16a1 a13e 1976 40be
00000020: e829 1fbd 019f 7ebe 792b 6abe 068f 32be
00000030: 1fea fdbd 7bde 24be 78fa 82be e76b 64be
0.21482538 -0.1793899 -0.20680322 -0.10915122 0.09866861 -0.12764603 0.3156821 -0.1879505
-0.038858324 -0.24865343 -0.22868146 -0.17437372 -0.12398171 -0.16100495 -0.25581717 -0.22306786

fc1.weight f4 [15, 784]
00000000: 3534 e23d cbe0 e33d 0e1f 463e 634f 8c3e
00000010: 4e5f 173e 11d2 213c fa92 a93d a425 f43d
00000020: 4e8d 0d3e 85bf f33d e4e1 523d 09f3 63bd
00000030: 6cbc 8abe ed7a 96bc 71e4 d13d 0a99 52bd
00000040: fc49 893d a2c0 6dbb b100 01be 3e10 24bf
00000050: 8ce2 0fbd 0ea1 fe3c 4626 b3be 7b09 edbe
00000060: b0de 2e3d edb7 47be 5904 03be 85dd 55bd
00000070: 7868 c13c bf10 c0be eee0 0bbf 1d37 ffbd
00000080: 80d9 9c3e 9a3a 123e 2952 6d3d fb7f 473d
00000090: 0d79 28bd 113e 35bd ae2b df3d 14f8 053e
000000a0: d2ca 793d 2922 be3d 54b3 b03d 9744 463d
000000b0: c94b 983d 07a2 813d aa74 efbb 40e7 9a3c
000000c0: 4195 0f3d 72bf 563d 3e62 473d 61cb 233b
000000d0: b0e5 99bc 7d64 fdbd e9de efbd a1f5 3e3d
000000e0: 3d9a 0ebe 9fdd aabd f150 4abd 6682 3abe
000000f0: c4ac 2fbe 4310 423c 1dac e53b d118 a63d
00000100: 2de9 bcbd 4892 00be 2249 0cbe 17fe 58be
00000110: c711 c9bd 8859 cb3c 0b59 45be bc4f 86be
00000120: ae68 afbd 4b59 8cbe a669 81be c3bf 38be
00000130: 3f7f d9be b92e c5bd b4ec 6e3d 121f 7abd
00000140: 8b29 7cbd 366a acbc c382 b33c 7bcd 5bbe
00000150: a581 13bd df1f 243e 32a6 03bd e39f 193d
00000160: a029 e73d df82 403e 4cad 43be 5c05 06bc
00000170: d498 413d ea38 703d 8676 423d 51f6 893d
00000180: c7eb 313c dc44 7c3d 8511 503c 4511 0ebd
00000190: a12f b2bc b721 9bbc 4013 d8bc ad9c a63c
000001a0: 1e5f 4ebc 9a85 c23b a44b a3bd d19b 01be
000001b0: c728 b3bb 4eb2 33bd 867f 8ebb f493 a53c
000001c0: f2b7 e73d 93d4 dfbc fb56 40bd d366 c73c
000001d0: bdb9 4ebe 5c8a a0be d6bc 093d 7e56 9cbd
000001e0: b5fc 86bd 8414 79bd 8ee1 6abe 81f8 80be
000001f0: cab3 1cbd 356c b03d cada 643e 307c 0dbe
00000200: 2293 86bd f8e2 0fbc d8cb bc3d ba13 0a3e
00000210: bdef ad3d ab8e a33d 14cb ae3d aec0 113c
00000220: 5ad1 e73d c25d 9e3d 4a0d fe3d 6300 ae3d
00000230: c199 d83d 83b4 7d3d 7c97 b43c ac8b 48bd
00000240: 6ffe 0ebe 9271 80bd df2a a43d 2fa3 e7bc
00000250: 6418 20bc 1060 a9bd 7e28 60bd ac04 0fbe
00000260: 6098 7abd 8b5c 40bd 2aa6 51be 44c4 6bbd
00000270: bf48 6abe e161 babd 2314 c23c 3db1 f03d
00000280: 9bb4 de3b 39d4 15be be47 0bbd c012 9dbd
00000290: f9a3 28be 8a51 403e 312d c13e 7f11 c03d
000002a0: 688f 7ebd b5b5 cb3d 362d b93d 854c 15bc
000002b0: 5059 f83d 5436 793e 1568 f63d 04ea 2a3d
000002c0: 0ff4 063e 9a6a 693e 872e 08bc 7be7 12bd
000002d0: fb7f ba3d 6ba7 b43d 0366 d23d af1e 3e3e
000002e0: 7029 393e 3c67 3dbe 5cb7 98be 39da 11be
000002f0: 3df8 c23c a162 02be a2d4 aa3d 2ec0 8cbc
00000300: 11f8 ecbe 0fe6 b2be 1e11 40be 3276 b5bc
00000310: c70d ac3d 386e ac3d 821f 493e a6de 713c
00000320: e103 d83d bfc5 653d d468 d03c 4f30 e93d
00000330: f619 aa3d 051b 5cbd 0707 133d 080c 00bc
00000340: 753b 30bd 351e 05bc cd24 6a3d a304 32bd
00000350: f5b2 1a3b 4ead dc3d 0bef a3be d6e0 21bf
00000360: e177 1fbc 7655 6b3b 83ca 23be 59e1 7dbe
00000370: 71a7 053e ae17 d7bd 217e 30bd ba0b ee3d
00000380: e3fa a93d c98b 95be eb5b 31be 4446 fcbc
00000390: 2775 653d e27f 513e e3f5 fd3d bf7c 8a3d
000003a0: 8e38 3e3d a020 d43d 9896 b53c 95af 543c
000003b0: 66a0 013e 2204 963d 353b 913c 34fb ed3c
000003c0: c60c ae3d 92ca 9d3b 8e24 70bb 01fc 50bc
000003d0: ec8b 95bc 4536 4abe a41a 03be bca4 62be
000003e0: d3bb f2be 3aba cebe cb03 f5be 06e2 f0bd
000003f0: be40 4ebd fbac b0bd 3018 e8bd 905c 7bbe
0.11045114 0.1112686 0.19347784 0.27404317 0.1478245 0.009876744 0.08279987 0.11921242
0.13823435 0.11901764 0.051484957 -0.0556517 -0.2709688 -0.018369162 0.1024865 -0.05141548
0.067035645 -0.0036278148 -0.1259792 -0.64087284 -0.03512816 0.031082656 -0.34990138 -0.46296296
0.04269284 -0.19503756 -0.12794627 -0.05221321 0.023609385 -0.37512776 -0.5464009 -0.12461684
0.3063469 0.14280167 0.057939682 0.048706036 -0.041131068 -0.044248644 0.10897003 0.13082916
0.06098444 0.09283859 0.08627954 0.048405256 0.0743633 0.063297324 -0.0073076086 0.018909097
0.03505445 0.05242867 0.048677675 0.002499305 -0.018786281 -0.12372682 -0.117124386 0.04662097
-0.13926025 -0.08343052 -0.049393598 -0.18213806 -0.17155749 0.011844697 0.007009043 0.08110202
-0.09224162 -0.12555802 -0.13699773 -0.21190678 -0.09817844 0.024822965 -0.19272248 -0.26232708
-0.08564888 -0.27411875 -0.25275916 -0.18041901 -0.42479894 -0.09628052 0.058331206 -0.061064787
-0.061563056 -0.02104674 0.021912938 -0.21465103 -0.03601231 0.16027783 -0.032140918 0.037505995
0.11287236 0.18799923 -0.19109076 -0.008179989 0.04726489 0.058648027 0.047476314 0.06736434
0.010859436 0.061589107 0.0126994895 -0.03468444 -0.021751227 -0.018936975 -0.026376367 0.02033838
-0.01259592 0.0059363367 -0.07973412 -0.12657095 -0.0054675075 -0.043871216 -0.004348698 0.020212151
0.11314382 -0.027323043 -0.04695795 0.024341023 -0.20188041 -0.3135556 0.033627354 -0.076336846
-0.06591169 -0.06081058 -0.22937605 -0.25189593 -0.038257398 0.08614389 0.22349086 -0.13816905
-0.06571032 -0.008782141 0.092185676 0.13484088 0.08492992 0.07986196 0.08534828 0.008896036
0.113192275 0.07732727 0.124048784 0.084961675 0.10576201 0.061939728 0.02204489 -0.048961326
-0.13964246 -0.06271662 0.080159895 -0.028276054 -0.00977144 -0.082702756 -0.054726116 -0.13966626
-0.061180472 -0.046963256 -0.20473543 -0.05756022 -0.22879313 -0.091007 0.023691243 0.117525555
0.006796432 -0.14631738 -0.034003966 -0.07669592 -0.164688 0.18781105 0.3772979 0.09378337
-0.06214848 0.09946767 0.090418264 -0.009112482 0.1212641 0.24337131 0.12031571 0.04172708
0.13179038 0.22794572 -0.008311874 -0.03586529 0.091064416 0.08820995 0.102733634 0.18566392
0.18082213 -0.18496412 -0.29827392 -0.14243402 0.02380001 -0.12732936 0.08341338 -0.017181482
-0.4628301 -0.34941146 -0.1875653 -0.022151086 0.08401065 0.0841946 0.19640926 0.014762556
0.10547615 0.05609679 0.025440611 0.11386167 0.08305733 -0.053736705 0.035895374 -0.0078153685
-0.043025453 -0.008124878 0.057164002 -0.043461453 0.0023605202 0.10775243 -0.32018313 -0.632337
-0.009733171 0.0035909093 -0.15995221 -0.24792995 0.13052155 -0.105025634 -0.043089036 0.116233304
0.08299806 -0.2920821 -0.1732022 -0.030795224 0.05601993 0.2045894 0.12400415 0.06762075
0.046440654 0.10357785 0.022166535 0.012981315 0.12658843 0.07325007 0.017728427 0.029050447
0.0849853 0.004815408 -0.0036642882 -0.012755395 -0.018255197 -0.19747265 -0.12803131 -0.22133154
-0.47408924 -0.40376455 -0.47854456 -0.117618605 -0.05035471 -0.086267434 -0.113327384 -0.24547029

fc1.bias f4 [15]
00000000: d458 223d 0dbf 943d fc4f 9dbb 8d00 e5bd
00000010: e188 45bd 6646 663d 8100 6cbc ec4a d03b
00000020: c966 48bd e14e 443c 590b 5a3d c4d2 bd3d
00000030: 4f24 a33d faca 823d 23e5 a03d
0.039635494 0.072630025 -0.0048007946 -0.11181746 -0.04822624 0.05621948 -0.014404417 0.0063565876
-0.04892615 0.011981697 0.05323348 0.09268716 0.0796591 0.06386371 0.07856204
