MATHCNN5_less_epochs.pth (torch, 55217 bytes, 6 tensors)

conv1.weight f4 [8, 1, 3, 3]
00000000: e5d1 24bf f23d 08bf a193 833d 31b7 103e
00000010: 8120 cebd 9064 9b3e 8768 1c3f 7335 c33e
00000020: 3487 9e3e b47b e63e e77d c83e 0f8e cc3e
00000030: 56d0 dabe af09 8bbd 9c21 0f3e 005e fdbd
00000040: 442c 0bbf d7f6 e4bd 3833 9e3e 5dcf 93be
00000050: 1d24 8bbd 7fa8 04bf 795f acbe 39e7 debe
00000060: dfff 063f 6f8a 183e 116f 973c 0628 f4be
00000070: 1f7a f13e ff92 88bd d4f5 f83e d857 e93e
00000080: 37db 61bf 974a 943e 21c6 c73e 463a 39bf
00000090: e506 1fbe 618a d2be 3682 1d3f ec51 d6be
000000a0: 494a a4bd 49be b83e 940d 7bbe 540d 89be
000000b0: 5a61 063f 362b a4be 127f d9be 94f5 ecbe
000000c0: 70a5 8dbe 05ae c0bc 3662 c6be 793b c5be
000000d0: 8f0b e2be 49a6 90be 9273 ddbd 14d4 64bc
000000e0: 650d 1c3f 36e6 c9be 36d8 b3be 0d69 a03e
000000f0: ad6c 52be 9522 a3be 4118 78be ddaf cabe
00000100: 52bf fabc 8a20 b4be 3a8d e6be 1ee1 dcbe
00000110: 65f1 ebbe 3ee0 e6bd 04a6 0abc 19ff 1ebe
-0.64382774 -0.5321952 0.06424642 0.14132382 -0.100647934 0.3035016 0.61096996 0.38126716
0.30962527 0.45016253 0.39158556 0.39952132 -0.42737073 -0.067889564 0.13977665 -0.12371445
-0.5436442 -0.111798935 0.30898452 -0.28869143 -0.067939974 -0.51819605 -0.3366659 -0.43535784
0.5273418 0.14896558 0.018485578 -0.47686785 0.47163484 -0.06668662 0.48625052 0.45574832
-0.8822512 0.28963158 0.39018348 -0.72354543 -0.15529974 -0.411212 0.6152681 -0.41859376
-0.08021981 0.36082676 -0.24516898 -0.2676798 0.52492297 -0.32064217 -0.4247976 -0.4628111
-0.2766528 -0.023520479 -0.38746804 -0.38521937 -0.44149444 -0.28251866 -0.10813059 -0.013966579
0.6095794 -0.3943345 -0.35125893 0.31330147 -0.20549269 -0.31862321 -0.24228002 -0.39587298
-0.030608807 -0.35181075 -0.45029622 -0.431405 -0.46082607 -0.112732396 -0.008462433 -0.15527

conv1.bias f4 [8]
00000000: d6b1 093f ec59 4c3e 2027 353e a36b a3bd
00000010: 2361 0b3c f9a8 bc3d 1ff3 183c 83c7 523c
0.5378698 0.19956177 0.17690706 -0.079795144 0.008507046 0.092119165 0.009335308 0.01286495

conv2.weight f4 [16, 8, 3, 3]
00000000: 11ab 80bd 1d40 3e3e 0141 4f3e 9fdd 973d
00000010: e5be 603e 2047 afbd 1e37 8c3e d66f 823e
00000020: a1f0 f43d 5450 8e3d b052 12be 497e dd3d
00000030: 7fca 05be 6c99 a1be 248b 9fbe 858d f33c
00000040: 0d58 bdbc b703 21be 6a6b 7e3c 7f47 f9bd
00000050: 319f 5ebe e788 153e 18bc 04be 0a72 a6bc
00000060: 0e17 cebd daca 54be 4822 043e 0a66 6cbe
00000070: 4722 12be 5173 093f 2de3 05bf 6de1 863d
00000080: 79b4 c33e 55c5 c8bd 262b 3d3e 0a00 923e
00000090: ced5 0cbd 3b96 863e 62b7 393e 4472 ca3d
000000a0: 1d7f 9f3e 6271 2ebe a747 9b3d 7c05 9f3d
000000b0: ea34 b5be 677f 103e 64b0 513d b2ea 84be
000000c0: 0206 c93c 629f 0fbe bfd0 d0bd bb1a 6e3b
000000d0: 617f 74bd b752 15bd 259a 08bd e976 48bd
000000e0: 1505 a6bd 965b 033e 8c9d a8bc 60a5 7abe
000000f0: 6539 033c 2c85 4cbd 5b2c 45be aa55 2c3e
00000100: f2d4 03be 1f3b bdbe d6d9 023e 5181 8fbe
00000110: c6e2 3cbe 56e8 1a3d b678 44be 17d9 82bd
00000120: 3485 bbbc 0da0 c0bd 4e28 4bbe c19a 1abe
00000130: a16f 543e aa28 593e 5c59 53be 42c3 193e
00000140: d5bb f23e dac4 a7bd 0ccc 5a3e ae04 b73d
00000150: 6faa 9c3e 60bf 8abe ba99 bcbd c71c 9b3e
00000160: 9a66 ad3e e71d afbd d8ee ba3d ade9 913e
00000170: 2409 10bd 3544 8bbd 0de5 5f3e 676f 6a3e
00000180: 31ba f2bb 3881 34bd 85a6 6b3e 53f3 1b3f
00000190: 0e90 163e 325d 2bbe 39de ab3d f0c4 ca3e
000001a0: de21 8d3d b7d5 c9be 1391 50bd 44cd 993e
000001b0: 503e 4dbe 265c 053d b6fd 203d 5820 6a3d
000001c0: 0b54 5dbe 18e0 a73d 68f8 f03d 009c 10be
000001d0: 8c27 6dbe c980 7dbd 9a4a 953d 3d9e c83d
000001e0: 7c1e ecbe 0605 e4bd c5cd 043d 13c9 0fbd
000001f0: fa3c abbe 5f73 abbd 0429 7ebe 4a52 0a3e
00000200: ffa0 00bc 79b8 0f3d c587 98bd 7807 8d3e
00000210: 4789 793e db8e 6c3d 0584 b8bc 09bb d6bd
00000220: a675 d23d 1413 7ebd 598f debe 7d76 8dbd
00000230: 4002 bf3c 04de 59bd 6e05 72be bbce ba3d
00000240: a9fe 193e 83e9 113d 7a9a 67be 5bc8 453e
00000250: 8cdd 46be 7190 a6bd c3ff 123e 8465 dabc
00000260: 5aee 343d 1c7f 92be 3178 ac3b 565c b33e
00000270: cee3 71bd e98c 4dbd dc4f 62bd 45ef 5cbc
00000280: 6fc4 f5bd c826 813d 7f23 b7bd b658 adbe
00000290: 7d23 0cbc 8b20 51be 9901 b53d 7cb4 da3d
000002a0: 6b3f debd e11d 243c 1bc8 033e 7fea 94bd
000002b0: 1756 eb3e b9dc 9b3e 5262 9e3e 4a5e ba3e
000002c0: 7e3a 84bd 85e3 933e aa30 173e 571a 843d
000002d0: 64bf 763e 2f82 403e fc5d 4bbd 9c1a 513e
000002e0: 6271 263d 5fe6 ad3d 0697 5c3e 1065 3cbe
000002f0: af35 2abe 25f8 c03d 6f61 79be a149 39bd
00000300: 305c 4abc 3964 20be a100 643d a8bc 7cbd
00000310: 9b36 c8bd 0048 913c 6bc0 a4bd 3426 89be
00000320: 7795 2abb 0f20 643b 3675 2fbe 2671 1d3e
00000330: db64 6fbd 7ca5 8c3d 5311 a53d 8b37 813d
00000340: bbf1 5cbe 94f9 41bd 191a a7bd 1d7a e5bd
00000350: e873 a53d ced3 96bd 482b 29be 9eb8 2e3d
00000360: db01 273e a4c1 a13e 3344 f03d e695 71be
00000370: c941 58be 2559 44be e517 9dbd eadb 7f3d
00000380: be31 a33d ea49 bf3d 12e1 9c3e 4e1a 5c3e
00000390: c6fd db3e e04c ca3e 3019 133e 0ef7 693d
000003a0: 4e59 0abe c36f 71be 18e3 103d 4c8d 9ebd
000003b0: e509 43bd 86fc 9b3d ec17 4e3d 6be4 353e
000003c0: b167 9d3d 4aad c53c a6b3 58bd 77e4 5ebc
000003d0: 17c4 a43d cf2b 1a3e 895a 85bd 328c f1bd
000003e0: 5e0b 5ebe 7e56 6fbe 7833 b7be 80dd 6c3d
000003f0: 9ccf 10be c35a febd 1878 1abe ba22 22bd
-0.06282628 0.18579145 0.20239641 0.07415318 0.2194782 -0.08558488 0.273858 0.2547595
0.11959959 0.06948915 -0.14289355 0.108151026 -0.13065527 -0.31562364 -0.31160843 0.029730568
-0.023113275 -0.15724073 0.015528539 -0.1217184 -0.21740414 0.14603005 -0.12962377 -0.02031805
-0.10062991 -0.20780507 0.12903702 -0.230858 -0.14270888 0.53691584 -0.5229977 0.06585965
0.38223627 -0.09803263 0.18473491 0.28515655 -0.034383588 0.26286492 0.18136361 0.09885076
0.31151667 -0.1703544 0.07582026 0.07764718 -0.35391933 0.141111 0.05119361 -0.25960308
0.024538998 -0.14025643 -0.10196065 0.003633185 -0.05969179 -0.036455836 -0.03335013 -0.048941527
-0.08106438 0.12827906 -0.020582937 -0.24477148 0.008009289 -0.04993169 -0.19255202 0.16829553
-0.12874201 -0.36959168 0.1277841 -0.28028348 -0.18445882 0.03781923 -0.19186673 -0.06389063
-0.022890665 -0.09405527 -0.19839594 -0.15098096 0.20745708 0.21206918 -0.20639557 0.15015891
0.4740893 -0.08191843 0.213669 0.089364395 0.3059878 -0.27099133 -0.092090085 0.30295393
0.3386734 -0.08550625 0.09127587 0.28498593 -0.035164967 -0.06800119 0.2186472 0.22894059
-0.0074074497 -0.044068545 0.23012741 0.6091816 0.1470339 -0.1673477 0.08391995 0.39603376
0.06891225 -0.39420864 -0.050919604 0.30039418 -0.20043302 0.032558583 0.039304458 0.05715975
-0.21614091 0.08197039 0.1176613 -0.1412201 -0.23159617 -0.061890397 0.0728962 0.097958066
-0.46117008 -0.11133771 0.0324228 -0.03510387 -0.3344496 -0.08371615 -0.24820334 0.13507953
-0.007850884 0.035088036 -0.07447771 0.2754476 0.24368773 0.057753425 -0.02252389 -0.10484893
0.10276346 -0.062029913 -0.4346874 -0.069073655 0.023316503 -0.053190246 -0.23634884 0.09121462
0.15038551 0.035623085 -0.22617522 0.19314711 -0.19420451 -0.08133019 0.14355378 -0.026659735
0.044172622 -0.28612602 0.0052633514 0.35031384 -0.059055142 -0.05018321 -0.05525194 -0.013484781
-0.12000357 0.06306225 -0.08942317 -0.33856744 -0.008553383 -0.2042257 0.08838195 0.10678956
-0.1085194 0.010016889 0.12869303 -0.07271289 0.4596412 0.30441836 0.30934387 0.36400062
-0.06456469 0.2888452 0.14764658 0.064503364 0.24096447 0.18799661 -0.049650177 0.20420307
0.040635474 0.084912054 0.21541986 -0.18397927 -0.16622041 0.0942233 -0.24353574 -0.045236234
-0.012351081 -0.15663232 0.055664662 -0.061703354 -0.0977604 0.017734528 -0.08044513 -0.2678696
-0.002602903 0.0034809147 -0.17134556 0.15375194 -0.058445793 0.06867501 0.08059945 0.06309422
-0.21576588 -0.047357157 -0.081592746 -0.11204932 0.08078748 -0.07364617 -0.16520417 0.042656533
0.16309302 0.3159305 0.11731758 -0.23592338 -0.21118845 -0.19174631 -0.07670573 0.062465586
0.07968472 0.0934027 0.30640465 0.2149441 0.4296705 0.39511776 0.14365077 0.057120375
-0.1351063 -0.2357779 0.035372823 -0.07741794 -0.047616858 0.076165244 0.050315782 0.17762916
0.07685793 0.024130482 -0.0529057 -0.013604275 0.08045214 0.15055774 -0.06511409 -0.11794318
-0.21684024 -0.23372838 -0.35781455 0.057828426 -0.14141697 -0.12419655 -0.15084875 -0.0395839

conv2.bias f4 [16]
00000000: 057b da3d 9e34 7dbd d26c 5abd 6bcc 513b
00000010: 2971 53bd 9759 a73d 8119 d43c f761 b03d
00000020: 4b95 4f3d 39c6 1f3d 89c2 d9bc 19ed dbbc
00000030: 71cd 3f3c b44a 04bd 5667 44bd a871 c5bd
0.10667995 -0.061817758 -0.053326435 0.0032012712 -0.05162159 0.08171385 0.025891067 0.08612435
0.050679486 0.0390074 -0.02658202 -0.026846455 0.011706696 -0.032297805 -0.04795011 -0.09640819

fc1.weight f4 [15, 784]
00000000: caa5 ef3c 2c06 45bd dfa7 0ebc 316d 0dbe
00000010: ceb7 bdbd 5584 a53c 7b7f 153d 9594 80bd
00000020: a5d6 6e3c 6416 333d a096 89bd 3a6c 85bd
00000030: 4d6f 943d de9c a8bc 4b6b 0fbd 679b 8a3d
00000040: fef5 1bbd e8a3 cfbc 8d7c 7ebd 605a 5d3d
00000050: da12 febc 6216 c0bc 5c29 e03d 36d4 9d3d
00000060: 5d11 c2bd 644d 12bd 2d4b e93d cbf8 cc3b
00000070: 9551 53bb 48eb b13d 744a 813d 5695 41bd
00000080: 5c60 bf3c 12cf d63d 6745 c3bc 0770 eb3c
00000090: 2ee9 9b3d 16f2 06be 70d4 4cbd d7dd 0e3d
000000a0: 2092 be3d b8fd 2fbc f513 f8b9 c900 3ebd
000000b0: e990 5fbe 160a 5bbe 7f46 08be e8c4 993c
000000c0: 2ac8 543d 7976 18bd ee54 573c b3fc 00bc
000000d0: e264 cbbd e131 0ebd 5d96 5eba fad8 173c
000000e0: 8809 4a3c 6d2f f3ba 98d7 263c 9b87 f73d
000000f0: 647c ec3d 9821 a53d 3a66 283e 25dc ddbc
00000100: 54cc a7bd a168 55be 5b7c f2bd 25c1 203e
00000110: f443 f43d b20f 013e 8347 c4bd 3dda c5bd
00000120: 44bf 4ebd 76a9 943d 9103 d03a b597 c6bc
00000130: 1a68 c43d 238c 663d bb2e 673c 4b79 9fbc
00000140: 20a7 4b3e 9d1d 6dbe 7366 79be 03bd bebc
00000150: 2fda 0a3c 8f5c b23d 930e 073d fff5 1a3e
00000160: 1af6 4fbe e6f5 9dbe 970b 53bd 690d 1fbc
00000170: e7b0 bbbc 4e09 ea3c 9d05 b2be eb9f 82be
00000180: a3a7 40be 319c 68b9 1f68 303c 88b8 aa3b
00000190: fbf9 b6bd 5584 03be 633d 03be 5683 93bd
000001a0: e584 c9bc 6e51 95bd 2c08 e5bd 3024 5abd
000001b0: 0061 22bd a0fc 2ebe e73f 8cbc bf5e 033d
000001c0: 05d6 6fbd 9b2b 853d 1ed2 edbb 2edd 283c
000001d0: 019f 313c a6b9 803d e050 733d d28b 84bd
000001e0: 9cc1 ff3d a35b 0a3e eb6f 0a3e badc 693b
000001f0: 2d9b 043c 4ad4 083e 6a32 593c 5557 ae3d
00000200: 299a 003e 46c3 7ebd 4bb1 5b3c d6f7 d63c
00000210: 5229 743d 1eb2 8fbc 1971 6e3d fab2 b5bc
00000220: cb8f c4bd 13ec 81bc c0f1 fa3c d7b7 a2bd
00000230: 0f30 8cbd e0c2 b5bc f01b 0cbe 9e6c 38be
00000240: bd79 cebd c891 40be 0435 1cbd c15d a63c
00000250: 848f 913a 0bc3 653d e693 183b 9687 ed3c
00000260: 81c9 533d 5e80 fe3c b1ea 413d 2b2f 17ba
00000270: 5002 30be f1ef 9ebc b1ca 93bd e538 71be
00000280: 1cbc 88bd b45f d23d 44e5 cabc f552 b2bd
00000290: 28b6 63bd 6424 a0bd 750c 5dbe 3637 183d
000002a0: e1d4 12bc a268 49be 8677 dbbd e9e0 37bd
000002b0: eda6 55be e69e 25bd 087e 3c3d 182e 39bc
000002c0: 1ea3 8ebd bd82 34be dc60 6cbe 581f dbbc
000002d0: 6c80 8c3d ead2 253d 8efc b1bc f0a9 123c
000002e0: ff09 cdbc 1807 d03c d149 453c 4b23 943a
000002f0: 9342 873b f941 69bc d04a 553d 49a2 3a3d
00000300: 8bf5 6c3d dc49 313d 21fb d1bc cd52 893b
00000310: 1e69 a4bb 470e d0bc 8b33 99bd 56ca 07bb
00000320: d456 04be 3034 993b 0940 1b3d 31f1 41bd
00000330: 0a35 79bc aee7 b3bc 4196 9ebd 964c 98bd
00000340: 7a32 63bd 3ce1 053d 7f07 96bd c258 f5bb
00000350: 185e 86bd def2 d83c e81d 203d 48fb cc3d
00000360: b5d2 fabc 0f1e 36bd f4f0 0b3c dd56 0ebd
00000370: 2b95 3abd eb1b 0d3e 7e65 1d3e 3077 b3bc
00000380: b6f2 ea3c 303a a73d 9091 483d f8ce 88bd
00000390: 0f2a 623c aab4 e73d 8247 d9bc e469 b93c
000003a0: d361 2ebd 4faa 6e3d 209e 0bbe eb0d 1ebe
000003b0: c4bb 1dbe 8107 5d3c 8f0b cabc 073d a33c
000003c0: cf2c 113d 4cdc 8abd 7e8e 80be b104 24be
000003d0: aa01 093d 74d2 933b 4e87 9b39 2106 813b
000003e0: 8b5c 6e3d 0c81 8e3d 7c71 ea3c 447d de3c
000003f0: 682f 0cbc 41dc d13c 75ed 28bd 0978 13bb
0.02925386 -0.04810159 -0.008707016 -0.13811184 -0.092635736 0.020204702 0.036498528 -0.0627834
0.014577542 0.043722525 -0.067181826 -0.06514783 0.072477914 -0.020582613 -0.035014432 0.06767922
-0.038076393 -0.025346711 -0.0621305 0.054041266 -0.031014849 -0.023448173 0.10945389 0.07706492
-0.09475968 -0.035718337 0.11391292 0.0062552444 -0.0032244672 0.086874545 0.06313029 -0.04726156
0.023361377 0.10488714 -0.023836805 0.028739942 0.07612835 -0.13178286 -0.050007284 0.03487953
0.09305215 -0.010741644 -0.00047317115 -0.046387468 -0.21832623 -0.21390566 -0.13308142 0.01877065
0.051948704 -0.03722236 0.013142807 -0.007872748 -0.09931351 -0.034715537 -0.0008491034 0.00926804
0.012331374 -0.0018553563 0.0101832375 0.120864116 0.11547163 0.08063048 0.16445246 -0.027082512
-0.08193269 -0.20840694 -0.11840125 0.15698679 0.119270235 0.12603644 -0.09583952 -0.09660766
-0.050475374 0.072588846 0.0015870203 -0.024242261 0.09590168 0.05628599 0.0141102625 -0.019467017
0.19887972 -0.23155828 -0.24355488 -0.023283487 0.008474871 0.087090604 0.032972883 0.15132903
-0.20308724 -0.30851668 -0.051524725 -0.009707787 -0.022911502 0.02856889 -0.34769908 -0.25512633
-0.18813948 -0.0002218343 0.010767012 0.005209986 -0.08934399 -0.1284345 -0.12816386 -0.07202785
-0.024599502 -0.07290922 -0.11183199 -0.053257167 -0.039643288 -0.17088556 -0.017120315 0.03207278
-0.058553714 0.06502458 -0.007257714 0.01030664 0.010841132 0.0628541 0.0594033 -0.06471981
0.124881 0.13511519 0.13519256 0.0035684542 0.008093637 0.13362232 0.013256649 0.08512751
0.12558807 -0.062197946 0.013408969 0.026241224 0.05960972 -0.017540988 0.058213327 -0.02218007
-0.09597739 -0.01585964 0.030632854 -0.07945221 -0.06845104 -0.02218765 -0.13682532 -0.18010184
-0.100818135 -0.18805611 -0.038136497 0.020308377 0.0011105393 0.05609421 0.0023281514 0.028995316
0.05170584 0.03106707 0.04734296 -0.00057672214 -0.17188382 -0.019401522 -0.07216395 -0.2355686
-0.06676504 0.1027216 -0.024767525 -0.08707229 -0.05559364 -0.07819441 -0.21586783 0.03716203
-0.008961887 -0.1966882 -0.10716157 -0.044892225 -0.20864458 -0.04043474 0.04601863 -0.0113024935
-0.06964706 -0.17627998 -0.23083824 -0.026748344 0.06860432 0.040484346 -0.021726873 0.008951649
-0.02502918 0.025394008 0.012041525 0.0011302022 0.0041278093 -0.0142369205 0.0520733 0.045564923
0.057851356 0.04328333 -0.025632443 0.004190779 -0.0050174138 -0.025397433 -0.07480534 -0.0020719967
-0.12923747 0.0046754107 0.037902866 -0.04734916 -0.015210399 -0.02196106 -0.077435024 -0.074364826
-0.05546806 0.032685503 -0.073256485 -0.0074873874 -0.06560916 0.026482996 0.03909102 0.100088656
-0.030618051 -0.04446226 0.008541334 -0.034750808 -0.045552414 0.13780181 0.15370747 -0.021907419
0.028680187 0.08165395 0.048966944 -0.06680101 0.013803973 0.11313756 -0.026523355 0.0226335
-0.04257376 0.058267888 -0.13634539 -0.15434997 -0.15403658 0.013490559 -0.024663715 0.019926561
0.035443123 -0.067802995 -0.25108713 -0.16017415 0.033448853 0.004511172 0.00029664714 0.003937498
0.058193725 0.069582075 0.028618567 0.02715934 -0.008556224 0.02561772 -0.04124208 -0.0022501966

fc1.bias f4 [15]
00000000: 16e0 3e3c bb7d 823d c4e8 73bc f713 d4bc
00000010: 3b2c 58bc 2d82 2a3b 5b4b 20bd 074b 053d
00000020: 9834 fbbc 8a40 c1bc 7309 d93b 110c 46bd
00000030: 9414 3a3d 9df8 eebc 2c28 ccbc
0.011650106 0.063716374 -0.014887039 -0.025888426 -0.013194139 0.0026017532 -0.039134365 0.032542255
-0.030664727 -0.023590345 0.006623441 -0.04835135 0.04542978 -0.029171282 -0.0249215
