MATHCNN3.pth (torch, 55009 bytes, 6 tensors)

conv1.weight f4 [8, 1, 3, 3]
0	0xbef727ac	-0.48272455
1	0xbf020f4b	-0.50804585
2	0xbd19d7d0	-0.03755933
3	0xbef4231f	-0.47683045
4	0xbd725768	-0.05916539
5	0x3f0fc829	0.56164795
6	0x3e15c9fb	0.1462783
7	0x3ed02e83	0.40660486
8	0x3e52572b	0.20541064
9	0xbea9e2d9	-0.33180884
10	0x3ebdd547	0.3707678
11	0xbe81308d	-0.25232354
12	0x3f003189	0.50075585
13	0x3eb7bd84	0.35886776
14	0xbf2ea64d	-0.68222505
15	0x3cee7ef7	0.029113276
16	0x3ec5e5c3	0.38651857
17	0xbefb4858	-0.4907863
18	0xbe8a2873	-0.26983985
19	0xbf0c29fd	-0.5475157
20	0xbd23570a	-0.03987793
21	0xbea44068	-0.32080388
22	0xbe63488a	-0.2219564
23	0xbe4a3f7d	-0.19750781
24	0xbf0a5d65	-0.5404876
25	0xbe89a915	-0.26886812
26	0x3e750d71	0.23930909
27	0xbefefca4	-0.49802125
28	0xbf0c14a9	-0.54719025
29	0xbeaa61c5	-0.33277717
30	0x3e4893b9	0.19587602
31	0xbe32ec71	-0.17473008
32	0xbefbb1bd	-0.4915904
33	0x3f0cc634	0.54989934
34	0x3f02938b	0.5100638
35	0x3f0b652f	0.5445127
36	0x3d8c0d4c	0.06838474
37	0x3f0a5dfa	0.54049647
38	0x3d5d78cb	0.054070275
39	0x3e92722e	0.28602737
40	0xbe491e40	-0.19640446
41	0xbf11070f	-0.56651396
42	0xbe9fccd6	-0.31210965
43	0xbe65a15a	-0.22424832
44	0x3ed75d43	0.4206334
45	0xbe0ac749	-0.13552584
46	0xbea61a51	-0.32441953
47	0xbf2299e6	-0.6351608
48	0x3e9acdbb	0.30235085
49	0x3ed02684	0.40654385
50	0xbeb948e2	-0.36188418
51	0x3e4ad559	0.19807948
52	0x3e979d1c	0.29612052
53	0x3f0ab370	0.5418005
54	0x3f4ea1eb	0.8071582
55	0x3ef0707f	0.46960828
56	0x3dd9bd5b	0.1063182
57	0x3ecf9281	0.4054146
58	0x3ee5328f	0.44765136
59	0xbd178b04	-0.03699781
60	0x3e7ee9c3	0.2489386
61	0xbd0ac5d6	-0.033880077
62	0xbf3d77dd	-0.7401102
63	0xbefc7441	-0.49307445
64	0xbed61f39	-0.41820696
65	0xbeb5013e	-0.3535251
66	0xbe1be5c7	-0.15224372
67	0xbe332bbe	-0.17497155
68	0xbf075e58	-0.5287833
69	0x3e12228f	0.14270996
70	0xbeb9995c	-0.36249816
71	0xbefd4204	-0.49464428

conv1.bias f4 [8]
0	0x3e7739d9	0.24143161
1	0xbd068b43	-0.032847654
2	0xbb96292b	-0.0045825443
3	0x3e6bee58	0.2304014
4	0x3db19db4	0.086726576
5	0x3ea1c587	0.31596014
6	0x3e32eeae	0.17473862
7	0xbd9a15e9	-0.0752371

conv2.weight f4 [16, 8, 3, 3]
0	0x3d8d1f41	0.06890727
1	0xbe109b30	-0.141217
2	0xbda784af	-0.08179604
3	0xbcbb924b	-0.022896906
4	0x3ce1bb3c	0.0275551
5	0xbe8debe1	-0.27719024
6	0xbe81a2cd	-0.2531952
7	0x3dfe4a1f	0.12416481
8	0x3d3e1ec4	0.04641606
9	0x3ee9702c	0.45593393
10	0x3ee81a67	0.45332643
11	0x3ea37db7	0.3193185
12	0x3eb6f5b2	0.35734326
13	0xbd8aca62	-0.06776883
14	0x3e43908f	0.19098113
15	0x3ecdff03	0.4023362
16	0x3e1e8df3	0.15483837
17	0x3e71cada	0.23612538
18	0x3c88d415	0.016702691
19	0xbe15932a	-0.1460692
20	0xbe6cb8e4	-0.23117405
21	0x3e124b74	0.14286596
22	0xbd8e33ba	-0.0694346
23	0xbebc41f1	-0.3676906
24	0xbdb5e80f	-0.08882152
25	0x3e4ca11b	0.19983332
26	0x3da227ae	0.079177245
27	0xbe1c8b8d	-0.1528761
28	0xbe3c5b75	-0.18394263
29	0xbc251e3d	-0.01007801
30	0x3ea0d69c	0.31413734
31	0xbee7f2e3	-0.45302495
32	0xbb0d0620	-0.0021518543
33	0x3e2f2ab2	0.1710613
34	0x3e6350ef	0.22198842
35	0xbe0d37f0	-0.1379087
36	0x3e3a10c0	0.18170452
37	0x3e344402	0.17604068
38	0x3d06b47c	0.032886967
39	0xbe4c1049	-0.19928087
40	0xbcd20e57	-0.025641603
41	0xbcb24bea	-0.021764714
42	0xbe56b741	-0.20968343
43	0xbd284944	-0.041085497
44	0x3eaed358	0.34145617
45	0xbe942bfb	-0.28939804
46	0x3d806fc7	0.0627132
47	0x3e418bb9	0.18900956
48	0x3b0212e6	0.001984769
49	0xbe656e14	-0.22405273
50	0x3e9a5b2d	0.30147687
51	0x3ea0ad5d	0.31382266
52	0xbea5d67c	-0.323902
53	0x3e176c84	0.14787489
54	0xbd881791	-0.0664512
55	0xbd1ee4c2	-0.03879238
56	0x3dd4954f	0.10380041
57	0xbe8829e8	-0.26594472
58	0xbe98e8cf	-0.2986512
59	0xbc77198c	-0.015081774
60	0x3d9132ab	0.07089742
61	0xbee54419	-0.44778517
62	0x3e218361	0.15772773
63	0x3e027731	0.1274078
64	0xbeba3df2	-0.36375386
65	0x3c8395f9	0.016062723
66	0x3eae4128	0.34034085
67	0xbe27b5ba	-0.16377917
68	0xbeae1797	-0.34002373
69	0x3e60dfc2	0.21960357
70	0x3e6c1cee	0.23057911
71	0xbe858938	-0.26081252
72	0xbd4cf7a7	-0.050040867
73	0x3bec1785	0.007204952
74	0x3e128bd9	0.1431116
75	0xbed6933c	-0.41909206
76	0xbeb525af	-0.35380313
77	0xbe3fdfd1	-0.18737723
78	0xbe36a2c7	-0.17835532
79	0xbe89f273	-0.26942787
80	0xbe10a9f0	-0.14127326
81	0xbe4a61bf	-0.1976385
82	0x3e864eba	0.2623194
83	0x3e505ede	0.20348689
84	0xbe9ccb79	-0.30623987
85	0xbe9ecb68	-0.31014562
86	0xbea468e0	-0.32111263
87	0x3d9f15c9	0.07767827
88	0xbe57e953	-0.210851
89	0xbe6f9d36	-0.23399815
90	0xbd10e1bf	-0.03537154
91	0xbddb46bd	-0.10706852
92	0xbdc797c2	-0.097457424
93	0x3e2ec6c4	0.1706801
94	0xbd17a890	-0.037025988
95	0xbd97d617	-0.07413881
96	0x3e1b26b6	0.15151486
97	0x3db3fd20	0.08788514
98	0x3e7f7f04	0.24950796
99	0xbd922661	-0.071362264
100	0x3e432af6	0.19059357
101	0x3eab7f35	0.3349549
102	0xbe836efe	-0.25670618
103	0xbe94f655	-0.29094186
104	0xbd8b252b	-0.067941986
105	0x3e695cd9	0.22789325
106	0x3d918720	0.07105851
107	0xbec82425	-0.39090076
108	0x3ea4814e	0.32129902
109	0x3e8e5cea	0.27805263
110	0x3e832743	0.25615892
111	0x3c54c8e9	0.012987354
112	0xbd6f8bb7	-0.05848285
113	0xbc96df8e	-0.018417146
114	0xbde18812	-0.110122815
115	0xbbdc659a	-0.006725979
116	0x3e314b5c	0.17313904
117	0x3d65b19d	0.05607759
118	0x3eb71627	0.35759088
119	0x3ea6d6d9	0.3258579
120	0xbed3973f	-0.4132633
121	0x3d9b2512	0.0757543
122	0x3eac7947	0.33686277
123	0x3e712c97	0.23552166
124	0xbdd46298	-0.10370368
125	0xbef0de8a	-0.47044784
126	0x3e0334b1	0.12813069
127	0xbc257be3	-0.010100338
128	0x3daf4dfe	0.08559798
129	0xbe5574bd	-0.20845313
130	0xbdf3f639	-0.119121976
131	0x3e1656c0	0.1468153
132	0xbd8d7bc4	-0.06908372
133	0xbdfb0669	-0.12257082
134	0x3d7adb76	0.06124445
135	0xbdc0bbae	-0.09410797
136	0xbe38f488	-0.18062031
137	0xbdb85815	-0.09001175
138	0x3d8f9747	0.07011276
139	0x3d9f94db	0.07792064
140	0xbe0f2107	-0.13977443
141	0x3d996430	0.074898124
142	0x3e9c68ef	0.30548808
143	0x3d9887c1	0.07447768
144	0x3d4b580d	0.04964452
145	0xbe2b7348	-0.16743195
146	0xbebe069f	-0.37114426
147	0xbeb5b376	-0.3548848
148	0xbc383808	-0.011243828
149	0x3cd812be	0.026376124
150	0x3e00a3e4	0.1256252
151	0x3e84b05a	0.25915796
152	0x3c24f865	0.0100689875
153	0xbe24dc9f	-0.16099785
154	0x3de9cd53	0.114161156
155	0x3c012102	0.007881405
156	0xbd0ec439	-0.0348551
157	0xbebeedd6	-0.3729083
158	0xbe920207	-0.28517172
159	0xbebfe99a	-0.3748291
160	0xbe379269	-0.17926945
161	0xbc557daf	-0.013030454
162	0xbdf79cb7	-0.12090438
163	0xbe0a5a30	-0.13510966
164	0xbdd54f02	-0.1041546
165	0xbd71548a	-0.058918513
166	0x3ded7cb2	0.11596049
167	0x3e3a5ec2	0.1820021
168	0x3d493e14	0.049131468
169	0xbcf093c5	-0.029367337
170	0xbdf99aa0	-0.121876955
171	0x3de1c812	0.110244885
172	0xbe2cefe5	-0.16888388
173	0xbe955822	-0.29168802
174	0xbe772fb2	-0.24139288
175	0x3dabf3e5	0.083961286
176	0x3e0a4147	0.13501464
177	0x3cbbd9fd	0.022931093
178	0x3e20beea	0.15697828
179	0x3e39fa25	0.18161829
180	0x3e45176b	0.19247214
181	0x3e7bcc09	0.24589552
182	0x3ea65965	0.32490078
183	0x3e83b6dd	0.2572545
184	0x3ecfc32e	0.40578598
185	0x3e88a29d	0.26686564
186	0x3dd4cc61	0.10390545
187	0xbe975a62	-0.29561144
188	0xbe6585e2	-0.22414353
189	0x3e12253e	0.1427202
190	0x3e3a5497	0.18196331
191	0xbe6968ad	-0.22793837
192	0xbe2c872e	-0.16848442
193	0xbddb6112	-0.10711874
194	0xbd701a56	-0.058618866
195	0x3e7725f2	0.24135569
196	0x3e779a31	0.24179913
197	0xbc2fad89	-0.010722526
198	0x3b840bcf	0.004029728
199	0x3e701bd9	0.23448123
200	0x3e850a02	0.25984198
201	0x3da1d457	0.07901829
202	0xbdb34629	-0.08753616
203	0x3be3c4d2	0.006950953
204	0xbe57aef4	-0.21062833
205	0xbe53c674	-0.20681173
206	0xbe23ec30	-0.16008067
207	0xbdd083e6	-0.10181408
208	0xbd3c43eb	-0.04596321
209	0xbe0793d7	-0.1323999
210	0x3cc9e090	0.024643213
211	0x3dbfcec7	0.093656115
212	0x3d2f48bc	0.042793974
213	0x3d263e5b	0.04058681
214	0x3d589567	0.052876856
215	0x3e027c86	0.12742814
216	0xbdd85e88	-0.105649054
217	0x3e0b15cf	0.13582538
218	0x3d5b8dfc	0.053602204
219	0xbdf7a378	-0.12091726
220	0x3e9ec529	0.31009796
221	0x3d63fa52	0.055658646
222	0x3e457c6b	0.19285743
223	0x3ea0f4aa	0.31436664
224	0xbe795547	-0.24348937
225	0x3e94abbe	0.2903728
226	0x3eb818bd	0.35956374
227	0x3f00c128	0.50294733
228	0x3ef1f4c7	0.47257063
229	0x3e826e04	0.2547456
230	0x3eb92a0a	0.36164886
231	0x3d9ea63e	0.07746552
232	0x3ed58dec	0.4170984
233	0x3e5a582e	0.213227
234	0xbdfccb2a	-0.12343438
235	0x3e1bef17	0.15227924
236	0xbe0528fb	-0.13003914
237	0x3e38c8b2	0.18045309
238	0x3e1225e2	0.14272264
239	0xbdfdbe5a	-0.12389822
240	0xbcee5438	-0.029092893
241	0xbe3b0d6c	-0.18266839
242	0x3db6d8e4	0.08928087
243	0x3da9d500	0.0829258
244	0x3d0209b4	0.031747535
245	0xbdbcffa1	-0.09228445
246	0xbd770ae7	-0.06031313
247	0xbd993f11	-0.07482732
248	0xbe5d0a0a	-0.21585861
249	0x3c8e3e96	0.017363828
250	0xbe54937b	-0.20759384
251	0xbdd8abf1	-0.1057967
252	0xbd0b8d8c	-0.034070536
253	0xbe383a16	-0.17990908
254	0x3dcc6eb6	0.09982054
255	0x3dfbb1c7	0.12289768

conv2.bias f4 [16]
0	0x3d200465	0.03906669
1	0xbe7aee44	-0.24504954
2	0xbdb95805	-0.090499915
3	0xbe36679a	-0.17812958
4	0xbc071a32	-0.008245992
5	0x3df059aa	0.11735852
6	0xbe14792f	-0.14499353
7	0x3e393552	0.18086746
8	0xbe32b277	-0.17450891
9	0xbd95ae1f	-0.073086016
10	0x3cc26b04	0.02373267
11	0xbdbce986	-0.092242286
12	0xbdabeb52	-0.08394493
13	0xbdcda057	-0.10040348
14	0xbe17f77f	-0.14840506
15	0xbda963b4	-0.0827097

fc1.weight f4 [15, 784]
0	0xbbb7b693	-0.0056064813
1	0xbd8cab65	-0.068686284
2	0xbdc0a0cb	-0.09405669
3	0xbe1d257f	-0.15346335
4	0xbe0ff934	-0.14059907
5	0xbd397633	-0.04527874
6	0xbd3cc09b	-0.04608212
7	0xbe475d33	-0.19469146
8	0xbb2ff5f1	-0.0026849473
9	0xbde4770e	-0.111555204
10	0xbd824df6	-0.06362526
11	0x3d7a2384	0.061069027
12	0x3d94a645	0.07258276
13	0x3e007feb	0.12548797
14	0xbd64b45c	-0.055836067
15	0xbd3b563a	-0.04573653
16	0xbd377fda	-0.044799663
17	0x3d370a69	0.044687662
18	0x3e80b14e	0.25135273
19	0x3e82ab67	0.25521395
20	0x3e2c99cc	0.16855544
21	0xbd790a67	-0.060800936
22	0x3d548a52	0.051889725
23	0x3da1fe1f	0.07909798
24	0x3d91e179	0.071230836
25	0x3db6b82e	0.08921848
26	0x3e369811	0.17831446
27	0x3e223d52	0.15843704
28	0x3baa5659	0.0051982817
29	0x3bce33e0	0.006292805
30	0x3e0a9c25	0.13536127
31	0xbdb4a774	-0.08821002
32	0xbe5e8d04	-0.2173348
33	0xbdffda3a	-0.12492795
34	0x3d20a919	0.039223764
35	0x3e0b96ee	0.13631794
36	0x3d1415e7	0.0361537
37	0x3e32017d	0.1738338
38	0x3d4afbf2	0.04955668
39	0xbea02a0e	-0.31282085
40	0xbe97d02a	-0.29651004
41	0xbdbddc6b	-0.09270557
42	0xbd9451cd	-0.07242165
43	0x3e6bbdd8	0.23021638
44	0x3d358719	0.044318292
45	0xbe47a42d	-0.19496222
46	0xbea79fdc	-0.3273915
47	0xbe4836ae	-0.19552109
48	0xbd222b9b	-0.039592367
49	0x3cf664f1	0.03007743
50	0x3d5a933a	0.053363062
51	0x3d3d7d46	0.04626205
52	0x3b58a0d2	0.003305484
53	0x3d4e5fb0	0.050384223
54	0x3d4f024a	0.050539292
55	0x3c9dd4e3	0.019266551
56	0x3cf4dbbb	0.029889932
57	0xbe1278db	-0.14303915
58	0xbe5d57be	-0.21615502
59	0xbd41bdb3	-0.047300052
60	0x3d7c87ba	0.061652876
61	0xbcd790a5	-0.02631409
62	0x3e430fe3	0.19049029
63	0xbe021df1	-0.12706734
64	0xbe3e17ac	-0.18563718
65	0xbe1c0447	-0.15236007
66	0x3d8f78a6	0.07005434
67	0x3d8084a8	0.06275302
68	0x3e202059	0.1563734
69	0x3e1182bc	0.14210027
70	0xbe338b40	-0.17533588
71	0xbec6fc33	-0.38864288
72	0xbe384dec	-0.17998475
73	0x3d5bfdb5	0.05370875
74	0xbd2b9301	-0.04188824
75	0xbddd27bd	-0.10798595
76	0xbd130d90	-0.035901606
77	0x3d319a99	0.043360326
78	0xbce844e0	-0.028353155
79	0x3bd431ee	0.0064756786
80	0xbd41fb25	-0.04735865
81	0xbd73d92d	-0.059533287
82	0xbd377051	-0.044784848
83	0xbbd94460	-0.0066304654
84	0x3d5064a0	0.050877213
85	0xbdaaffb4	-0.08349553
86	0x3dbe9835	0.09306375
87	0x3e00f346	0.12592801
88	0x3bd74af8	0.0065702163
89	0xbd6033c4	-0.054736868
90	0xbcb5d6a0	-0.022197068
91	0x3d3b06d0	0.045660794
92	0xbd57e01e	-0.05270397
93	0x3d9e52c8	0.07730633
94	0xbc9d0d02	-0.019171242
95	0xbc95783b	-0.018245807
96	0xbd3757e3	-0.04476155
97	0x3d898918	0.06715602
98	0x3d4163b9	0.047214244
99	0x3c983124	0.01857812
100	0xbbcacc09	-0.0061888737
101	0xbc1baba7	-0.009501374
102	0xbd05ca19	-0.03266344
103	0x3b280ba5	0.0025641706
104	0xbc97da66	-0.018536758
105	0x3e19349d	0.14961477
106	0xbdd91ad8	-0.10600823
107	0xbdc37fe9	-0.09545881
108	0xbe0fc519	-0.1404003
109	0xbd5df778	-0.054191083
110	0xbd0ea508	-0.034825355
111	0x3e2f0a2e	0.17093727
112	0xbc3518ca	-0.011053273
113	0xbcebc98f	-0.028782634
114	0xbdc41619	-0.09574527
115	0xbdfcade0	-0.123378515
116	0xbdf4a567	-0.119456105
117	0xbed2fd54	-0.412089
118	0xbe416d2d	-0.18889304
119	0xbc504a56	-0.012713036
120	0xbdd031d2	-0.101657525
121	0xbd8a8986	-0.06764512
122	0xbe806404	-0.25076306
123	0xbe7de4d9	-0.2479433
124	0xbeb24fd3	-0.34826526
125	0xbd6ef8b8	-0.058342665
126	0x3d6563cf	0.056003388
127	0xbea5282f	-0.3225722
128	0xbe4242ef	-0.18970846
129	0xbd08979a	-0.033347704
130	0x3c4dbb06	0.012556797
131	0x3e026123	0.12732367
132	0xbd498a2b	-0.049204033
133	0x3cc6736a	0.024224956
134	0xbdac078f	-0.08399879
135	0xbd07d106	-0.033158325
136	0x3d906152	0.070498124
137	0x3e1d00e8	0.15332377
138	0x3d2cac0f	0.042156275
139	0xbd7ff527	-0.062489655
140	0x3c6e25f4	0.014535416
141	0x3d36ec49	0.044658933
142	0x3d82ce54	0.0638701
143	0x3d040a7e	0.03223657
144	0x3c45328f	0.01203598
145	0x3d53660d	0.051610995
146	0x3d0f9e46	0.03506305
147	0xbe33e444	-0.17567545
148	0xbd26b7da	-0.04070268
149	0xbe6140d9	-0.21997394
150	0xbe53c3b9	-0.20680131
151	0xbe19b973	-0.1501215
152	0xbe00b41c	-0.12568706
153	0xbce7a583	-0.028277164
154	0xbd7c2407	-0.061557796
155	0xbd1d581c	-0.038414106
156	0xbcaba46a	-0.020952422
157	0x3d091ef0	0.03347677
158	0xbdc53054	-0.096283585
159	0xbd5d839d	-0.054080594
160	0x3d64c37f	0.055850502
161	0x3d5f97fa	0.054588296
162	0x3d14673e	0.036231272
163	0x3d495ed9	0.04916272
164	0x3dbd6a9e	0.09248851
165	0x3ce1ee66	0.027579498
166	0x3dda07ad	0.10645995
167	0x3d6ef4ab	0.058338802
168	0x3d696a89	0.056986365
169	0x3e0383ad	0.12843199
170	0x3dc7f964	0.09764364
171	0xbdc7d9f4	-0.09758368
172	0x3dbeb523	0.09311893
173	0x3e40cf7a	0.18829146
174	0x3e076c4c	0.13224906
175	0x3d995861	0.0748756
176	0xbc2b14cd	-0.010441971
177	0x3e3bef97	0.18353115
178	0x3d158cb0	0.036511123
179	0xbca78a5e	-0.02045172
180	0xbd73b932	-0.059502788
181	0x3e2428af	0.16031145
182	0x3e09a2d8	0.13441026
183	0xbca7fcb8	-0.020506248
184	0xbc8b0532	-0.01697025
185	0xbda6fa3c	-0.08153197
186	0x3ce25698	0.027629182
187	0x3cb1a680	0.021685839
188	0x3d2a751c	0.04161559
189	0xbd1a373c	-0.03765033
190	0xbde8e829	-0.11372406
191	0xbeec3df2	-0.4614101
192	0xbf222088	-0.6333089
193	0xbee6459c	-0.44974983
194	0xbe79b082	-0.24383739
195	0xbd0bb192	-0.03410489
196	0xbd1fe611	-0.039037768
197	0xbdb5fe50	-0.08886397
198	0xbe630c73	-0.22172718
199	0xbe741268	-0.23835146
200	0xbe81f12d	-0.25379315
201	0xbd564d3a	-0.052319743
202	0x3c813d2d	0.015776241
203	0xbbef8ea2	-0.0073107043
204	0xbd5e06dc	-0.05420576
205	0xbd5bc56a	-0.053655066
206	0xbe1fb2e9	-0.15595593
207	0xbe142d2f	-0.14470361
208	0xbdc48109	-0.09594924
209	0x3e2c6e0d	0.16838856
210	0xbd55a917	-0.05216321
211	0x3ca8c2d8	0.020600721
212	0x3d1bab8c	0.038005397
213	0xbc7a09e6	-0.015261149
214	0xbcde2ce6	-0.027121019
215	0xbb905119	-0.004404199
216	0x3df844c5	0.12122492
217	0xbd87b9c1	-0.066272266
218	0x3dcf3054	0.1011664
219	0x3df13686	0.11777978
220	0x3cff30da	0.031151224
221	0x3c7ea125	0.01554135
222	0x3de28c5e	0.11061929
223	0x3dd8c115	0.105837025
224	0xbc9a771d	-0.018855626
225	0x3e497031	0.19671704
226	0x3e13bf34	0.14428407
227	0xbd858d95	-0.06521145
228	0x3d71d632	0.059042163
229	0x3e2914c2	0.16511825
230	0x3d8eb209	0.06967551
231	0x3d11f1ff	0.035631176
232	0x3e1a7c93	0.15086584
233	0xbe2e84f5	-0.17042907
234	0xbe5f4b63	-0.21806102
235	0xbdae083b	-0.084976636
236	0x3bac72ba	0.0052627
237	0x3caa3419	0.020776795
238	0xbce4a6f3	-0.027911639
239	0xbdccfc66	-0.10009079
240	0xbec4a60d	-0.38407937
241	0xbe90c8ed	-0.28278294
242	0xbe082d65	-0.13298567
243	0xbe2bf526	-0.16792735
244	0x3cb42f0b	0.021995088
245	0xbbdcf4ff	-0.006743073
246	0xbde7c02b	-0.1131595
247	0xbe36f564	-0.17867047
248	0xbdf0cda3	-0.11757972
249	0xbe72126f	-0.23639844
250	0x3dc7c6e8	0.09754735
251	0x3cb39471	0.021921368
252	0xbd24e945	-0.040261526
253	0xbeb033fc	-0.3441466
254	0xbe91f32e	-0.28505844
255	0xbba3b593	-0.0049960106

fc1.bias f4 [15]
0	0x3d31d3d6	0.043414913
1	0x3e2fcaad	0.17167158
2	0x3cf56e38	0.029959783
3	0xbceb655a	-0.028734852
4	0xbcae7edd	-0.021300728
5	0x3d77189e	0.06032621
6	0xbd08d898	-0.033409685
7	0x3ceb1522	0.0286966
8	0xbdf6d81c	-0.12052938
9	0xbcfbb52c	-0.030726038
10	0x3e26934b	0.16267125
11	0x3e05cb3b	0.13065808
12	0x3dba5484	0.09098151
13	0x3e23dca2	0.16002133
14	0x3c38c7a2	0.011278065
