MATHCNN1.pth (torch, 55121 bytes, 6 tensors)

conv1.weight f4 [8, 1, 3, 3]
0.2816543 0.30291718 0.3750448 0.13429882 -0.028149141 0.08493902 0.4794719 0.30558977
0.24505688 0.57040876 -0.115023926 -0.9004724 0.52662885 0.34941307 -0.52990997 0.6167483
0.29994226 0.061509766 0.52484 -0.32361728 -0.5122248 0.19062896 0.66831106 0.64182544
0.13554785 -0.20869584 0.40745404 0.16883518 0.22075921 0.53589624 0.43329307 0.37542915
0.66341853 -0.20504469 0.51738715 0.2800579 0.25668 0.24895082 0.2159577 0.48216847
0.5916569 -0.460448 0.3547699 0.43141752 -0.26254982 0.6081598 -0.6335984 -0.5086329
0.7306882 -0.35893732 -0.7297075 0.6203871 0.115732595 0.092118055 -0.68759525 -0.32075468
0.09234444 0.3853464 0.60066694 0.2093083 0.5968772 0.58761525 0.18301147 0.31732312
0.575654 0.7014998 0.38742155 0.3656791 -0.11020994 -0.32896927 -0.80710274 -0.68240917
00000000: fe34 903e f617 9b3e df05 c03e a185 093e
00000010: 0799 e6bc 82f4 ad3d 577d f53e 4376 9c3e
00000020: 31f0 7a3e 4f06 123f aa91 ebbd 5c85 66bf
00000030: 26d1 063f 45e6 b23e 2ea8 07bf 37e3 1d3f
00000040: 0892 993e aaf1 7b3d ea5b 063f 2ab1 a5be
00000050: 2a21 03bf 3d34 433e 6f16 2b3f ac4e 243f
00000060: 0ecd 0a3e 5db4 55be d19d d03e 21e3 2c3e
00000070: b40e 623e 7f30 093f 97d8 dd3e 4038 c03e
00000080: ccd5 293f 3cf7 51be 7c73 043f c063 8f3e
00000090: 906b 833e f7ec 7e3e 0424 5d3e c9de f63e
000000a0: d476 173f d7bf ebbe 66a4 b53e c2e2 dc3e
000000b0: ee6c 86be 5cb0 1b3f 8133 22bf c435 02bf
000000c0: 620e 3b3f a2c6 b7be 1cce 3abf b0d1 1e3f
000000d0: 3605 ed3d 64a8 bc3d 3e06 30bf f539 a4be
000000e0: 151f bd3d 204c c53e 4fc5 193f ea54 563e
000000f0: f2cc 183f f46d 163f 5c67 3b3e 2d78 a23e
00000100: 0f5e 133f 7e95 333f 1e5c c63e 4a3a bb3e
00000110: c0b5 e1bd a96e a8be 499e 4ebf 5eb2 2ebf

conv1.bias f4 [8]
-0.088926315 -0.079930045 0.051466543 -0.059669573 -0.124719806 0.09496194 -0.09660909 0.00035857377
00000000: 001f b6bd 5db2 a3bd 95ce 523d 1568 74bd
00000010: 196d ffbd 687b c23d fdda c5bd f5fe bb39

conv2.weight f4 [16, 8, 3, 3]
0.0019332569 -0.07856426 -0.03305354 0.0015709891 0.065181546 -0.01779813 -0.22143987 -0.02692219
-0.13051131 0.09950622 -0.11138981 -0.065121174 0.26797822 0.02224176 0.038362764 -0.09620983
-0.35449076 -0.15134169 -0.07066866 -0.012508893 0.03218816 0.3479838 0.17701799 0.22825898
-0.116134025 -0.023773992 -0.183429 -0.32449377 -0.12622501 -0.11293037 0.17372856 0.28156748
0.26766488 -0.12546524 -0.119028725 -0.19906025 -0.17607522 -0.19837686 -0.26670647 0.11760129
0.23003423 0.057783213 -0.25424814 -0.23476708 -0.14691208 0.08218433 0.061884973 -0.02271855
-0.017118286 -0.056295156 -0.09845935 0.011887731 -0.13264789 0.08039735 -0.009599687 0.054968953
0.1473644 0.29836985 0.27587068 0.15317918 -0.3562309 -0.42527917 -0.21545483 -0.45358545
-0.5883596 -0.34009296 0.091201834 0.20359887 0.3784192 0.39249536 0.36427057 0.21766375
-0.04024465 0.045412976 0.07673383 0.21740915 0.056595247 0.10488639 -0.048184965 -0.017001424
-0.1431781 -0.20207998 -0.50239766 -0.27937657 -0.125539 -0.24770512 -0.058804654 -0.0831166
-0.14019157 0.04315259 -0.08647443 0.18653004 -0.06271039 0.08649242 -0.12600021 -0.100414835
0.047527805 -0.024274651 -0.15968867 -0.073106274 0.026776737 0.1275543 0.08070954 -0.024634816
-0.09653018 0.020418974 0.13109455 0.006232466 -0.25400645 0.122728996 0.05740949 0.17685843
0.22036886 0.039885346 0.039959367 0.08562043 0.08210776 -0.24404469 -0.5205365 -0.5093928
-0.022186343 -0.26502383 -0.070121594 0.009955421 -0.1841052 0.08381911 0.21149807 0.3061842
0.18862349 0.3160587 0.018406624 -0.1281471 -0.19975626 -0.06394692 -0.29366022 -0.5792769
-0.16751754 0.14006457 0.2869665 0.06848197 -0.09619361 0.10655604 0.18033125 0.3302197
0.029881563 0.16446826 0.17198259 0.17213534 -0.08321669 -0.24798234 -0.18533808 -0.13946563
-0.0688475 0.14413878 0.13714786 -0.041360047 0.22795781 0.07125414 -0.1298239 -0.1291951
-0.2660705 0.013599069 0.18336147 -0.012803062 -0.056801736 -0.060454313 -0.029584734 -0.31312856
0.017965931 -0.06177608 0.0794588 0.18499067 0.051921252 0.23950344 0.086921625 -0.16228059
-0.26864854 -0.14382927 -0.18214607 -0.18478215 0.1830406 0.072743386 0.1785268 -0.039215688
0.007956619 -0.008401905 -0.26635572 -0.18924224 -0.14915484 0.008655881 0.036708515 -0.0017179716
0.2370722 0.10793718 0.059361663 0.10976048 -0.043849725 -0.0015882307 0.13327605 0.07997649
0.11245501 0.01362137 -0.10814536 -0.27886912 -0.21125907 -0.027664978 -0.09740348 0.13020258
0.2059995 0.31678197 0.32269362 0.16278824 -0.046909627 -0.05135216 -0.21443681 -0.47012588
0.089603856 -0.03101395 -0.026623854 -0.082544796 0.0050055915 -0.0139205735 -0.043455455 0.099869765
0.008541501 0.059252147 -0.03625171 -0.034980208 -0.44706354 -0.34302232 0.12600869 -0.12503563
-0.32739216 -0.11311199 0.28166014 0.1073227 -0.17272367 -0.20717065 -0.10319801 -0.04187916
-0.022140307 0.12498028 0.09075053 0.1968696 0.037832845 0.06740625 -0.06970751 -0.13505217
-0.17486663 -0.023556797 -0.05419401 0.13642749 0.132506 0.18158852 0.034342993 -0.111287266
00000000: 5665 fd3a 4ce6 a0bd 2663 07bd a6e9 cd3a
00000010: e77d 853d 62cd 91bc 22c1 62be ed8b dcbc
00000020: c2a4 05be ebc9 cb3d 5720 e4bd 405e 85bd
00000030: 7134 893e 5a34 b63c 4622 1d3d a909 c5bd
00000040: d07f b5be 51f9 1abe bbba 90bd 1af2 4cbc
00000050: bbd7 033d ef2a b23e 3444 353e b9bc 693e
00000060: add7 edbd adc1 c2bc d0d4 3bbe 0c24 a6be
00000070: 2141 01be 0a48 e7bd e6e5 313e 9d29 903e
00000080: 5f0b 893e f679 00be 55c5 f3bd 73d6 4bbe
00000090: 104d 34be 4e23 4bbe c08d 88be f2d8 f03d
000000a0: 188e 6b3e 17ae 6c3d d02c 82be c866 70be
000000b0: 1f70 16be 4250 a83d 197b 7d3d 411c babc
000000c0: a63b 8cbc c095 66bd 0ea5 c9bd c2c4 423c
000000d0: d9d4 07be 5ea7 a43d 0148 1dbc 2027 613d
000000e0: b1e6 163e efc3 983e ec3e 8d3e 01db 1c3e
000000f0: e663 b6be 31be d9be 31a0 5cbe 5a3c e8be
00000100: bc9e 16bf aa20 aebe 07c8 ba3d 397c 503e
00000110: 29c0 c13e 27f5 c83e ac81 ba3e 3fe3 5e3e
00000120: 93d7 24bd f502 3a3d a026 9d3d 81a0 5e3e
00000130: 6bd0 673d adce d63d 995d 45bd 9246 8bbc
00000140: 489d 12be 0eee 4ebe 229d 00bf 720a 8fbe
00000150: 4c8d 00be 69a6 7dbe 26dd 70bd 0939 aabd
00000160: 618e 0fbe c5c0 303d 8219 b1bd bb01 3f3e
00000170: 4e6e 80bd f022 b13d 3306 01be 4ba6 cdbd
00000180: 84ac 423d a2db c6bc 6d85 23be beb8 95bd
00000190: e35a db3c 989d 023e 0b4b a53d f4ce c9bc
000001a0: 9db1 c5bd b145 a73c a63d 063e b739 cc3b
000001b0: 220d 82be 5759 fb3d 3726 6b3d 601a 353e
000001c0: 60a8 613e d15e 233d 6fac 233d c459 af3d
000001d0: 1d28 a83d dae6 79be e141 05bf 9167 02bf
000001e0: 22c0 b5bc 34b1 87be e99b 8fbd 101c 233c
000001f0: 1386 3cbe 5ba9 ab3d f392 583e 2dc4 9c3e
00000200: 8426 413e 72d2 a13e 7dc9 963c fe38 03be
00000210: e88c 4cbe 9af6 82bd a25a 96be 7e4b 14bf
00000220: b889 2bbe 166d 0f3e 46ed 923e 4640 8c3d
00000230: 2801 c5bd 0e3a da3d c1a8 383e 8e12 a93e
00000240: 2eca f43c 5e6a 283e 341c 303e 3f44 303e
00000250: 836d aabd 15ef 7dbe 44c9 3dbe 14d0 0ebe
00000260: ebff 8cbd 1e99 133e 7d70 0c3e 2769 29bd
00000270: c66d 693e b1ed 913d 8ef0 04be b84b 04be
00000280: 643a 88be a1ce 5e3c 1cc3 3b3e efc3 51bc
00000290: f0a8 68bd f19e 77bd af5b f2bc 6352 a0be
000002a0: 4a2d 933c ea08 7dbd 4cbb a23d 326e 3d3e
000002b0: 61ab 543d 6440 753e f703 b23d e22c 26be
000002c0: 4d8c 89be fb47 13be 8084 3abe 8837 3dbe
000002d0: ff6e 3b3e 7cfa 943d bbcf 363e a1a0 20bd
000002e0: 7b5c 023c 25a8 09bc c75f 88be b8c8 41be
000002f0: 0cbc 18be 65d1 0d3c ab5b 163d 902d e1ba
00000300: 0ec3 723e 2b0e dd3d 3725 733d 1aca e03d
00000310: c59b 33bd 2e2c d0ba 8479 083e b7ca a33d
00000320: d04e e63d 2b2c 5f3c 517b ddbd efc7 8ebe
00000330: 4c54 58be aaa1 e2bc 7a7b c7bd d353 053e
00000340: 88f1 523e 3f31 a23e 1938 a53e f6b1 263e
00000350: 4f24 40bd a456 52bd 5395 5bbe 57b4 f0be
00000360: 3a82 b73d f810 febc 451a dabc 3f0d a9bd
00000370: f205 a43b 1e13 64bc 59fe 31bd 8588 cc3d
00000380: a7f1 0b3c 61b2 723d ac7c 14bd 6847 0fbd
00000390: 83e5 e4be 9fa0 afbe 6c08 013e 5709 00be
000003a0: f29f a7be 42a7 e7bd c235 903e 01cc db3d
000003b0: 79de 30be 8b24 54be 7a59 d3bd 7b89 2bbd
000003c0: 975f b5bc a9f5 ff3d 6adb b93d 2f98 493e
000003d0: 9df6 1a3d 4a0c 8a3d d0c2 8ebd 1e4b 0abe
000003e0: 3d10 33be 2ffa c0bc 8afa 5dbd a6b3 0b3e
000003f0: a7af 073e 57f2 393e 3dab 0c3d 94ea e3bd

conv2.bias f4 [16]
-0.019655164 -0.20120233 -0.045609955 -0.24280316 -0.022972442 -0.31975785 -0.010715439 0.13668464
-0.16811562 -0.153564 0.04317942 -0.38041738 -0.26281703 -0.24055722 -0.27697837 -0.06553657
00000000: de03 a1bc fc07 4ebe 81d1 3abd 64a1 78be
00000010: b430 bcbc 4db7 a3be cf8f 2fbc 0ff7 0b3e
00000020: 8026 2cbe e23f 1dbe e7dc 303d 11c6 c2be
00000030: f48f 86be a254 76be 1cd0 8dbe 0a38 86bd

fc1.weight f4 [15, 784]
-0.025759073 0.10661044 -0.0166245 0.027636684 0.096599944 -0.04274439 -0.14510731 0.11821431
-0.2203393 -0.01031645 -0.07255043 -0.11450325 -0.063639775 0.056535326 -0.18471514 0.17561913
-0.06710164 -0.11287534 -0.2378848 -0.14481126 0.07681991 -0.0077690342 -0.042740423 -0.10185197
-0.28900766 -0.2837073 0.013630679 -0.07645378 0.078270495 0.00912858 -0.024954453 0.010082142
0.030361842 0.06744767 -0.1033153 -0.05117124 -0.05779952 -0.01564083 0.05829971 0.014848574
0.029022062 -0.05823871 0.18001401 -0.15774435 -0.0870239 0.066955134 0.10655332 -0.10769283
0.024196468 -0.08466986 -0.061269544 -0.04654148 -0.09291585 0.068849176 -0.11484544 -0.16486374
-0.036975615 0.02727923 0.073444314 0.02598681 0.015842626 -0.014403466 0.1609176 -0.2157234
0.025979714 -0.02534 0.07128128 -0.012191795 -0.12071461 -0.07376504 -0.05614545 0.06849961
-0.0023228128 -0.06960033 -0.26834983 0.06972894 -0.06793369 0.15494911 0.043412298 -0.12695856
-0.17189312 0.10816261 0.17384408 -0.23050943 -0.041449346 -0.04693374 -0.055586103 0.031539865
-0.0056970287 0.046936635 0.07739386 -0.010837489 -0.01749609 -0.058807135 -0.060500436 -0.037340738
-0.14733118 -0.10896227 0.029479029 -0.0043800506 0.07509775 0.027000008 -0.24443391 -0.18205462
-0.027532656 0.03644487 -0.2045317 -0.25877672 0.09436768 -0.25510904 -0.25542337 -0.1428084
-0.013879551 -0.3508077 -0.039249342 -0.021140441 -0.2497168 -0.21241881 0.038483404 -0.25764695
-0.28489003 0.014509215 -0.060442973 -0.2681387 0.022992134 0.0138024725 0.04747792 -0.13050611
-0.06460573 -0.24779429 0.09803477 0.11863255 0.031894375 -0.0075907465 -0.08515014 0.0816596
0.050430313 0.067080356 -0.0046550957 -0.020076793 0.09343817 0.030180477 0.008584412 0.07020911
-0.004586976 0.029127201 -0.083822854 -0.073757306 0.0868329 0.023285462 0.06695595 0.06724143
-0.03623087 -0.0754671 -0.0062565883 -0.0026521282 -0.1419999 -0.04050689 0.12154599 -0.00047017765
-0.16983128 -0.039218064 0.073265225 0.012896694 -0.19627236 -0.041827057 0.05441273 -0.08467252
0.08578496 0.01965282 -0.19543776 -0.26953742 0.0797876 0.030919407 -0.20930657 0.050282326
-0.026767718 -0.123732746 -0.26110145 0.0065834164 -0.02364286 -0.006064656 0.053595886 0.039508123
0.023939896 0.03788243 -0.044178464 -0.088583745 0.07614652 0.04799994 0.08897824 -0.023207769
0.08734763 0.04392735 0.0075116456 -0.00692266 0.090828806 0.000986802 0.067600116 -0.06542145
0.10985471 0.14709763 -0.012711965 0.04885944 0.075153306 0.01689294 0.071431026 0.028330443
-0.36606377 -0.04235976 0.07141158 0.04998007 0.1312482 -0.057429507 -0.08850316 -0.3093803
0.059192695 0.12209709 -0.07037435 0.03557911 0.030700486 -0.04604931 -0.06099313 -0.117130175
-0.02577293 -0.19644855 -0.069847465 0.18834662 0.13971302 0.08458153 0.024106985 -0.19346507
-0.48766786 -0.20082629 0.250714 0.16417024 -0.0040673786 -0.015935566 -0.04426425 -0.101120494
0.0011282205 -0.069833286 -0.14255098 0.032016106 -0.0038228605 -0.07658508 0.061717596 -0.13559541
-0.048409536 -0.1359774 -0.11224834 -0.11264502 -0.09611337 0.0038004897 -0.026400533 -0.025591645
00000000: b104 d3bc 9356 da3d 1a30 88bc 5466 e23c
00000010: 31d6 c53d be14 2fbd 0397 14be 581a f23d
00000020: a0a0 61be 5406 29bc 5295 94bd ae80 eabd
00000030: 9255 82bd 9691 673d f725 3dbe 80d5 333e
00000040: 966c 89bd 302b e7bd 1398 73be 6749 14be
00000050: c253 9d3d 6293 febb 9510 2fbd c497 d0bd
00000060: d0f8 93be 1542 91be 3653 5f3c cd93 9cbd
00000070: 484c a03d 0a90 153c 486d ccbc 922f 253c
00000080: 66b9 f83c 0122 8a3d f996 d3bd ef98 51bd
00000090: 31bf 6cbd 3321 80bc adcb 6e3d 6f47 733c
000000a0: adbf ed3c b78b 6ebd 9855 383e bc87 21be
000000b0: 9639 b2bd c61f 893d a138 da3d 0f8e dcbd
000000c0: ac37 c63c 6467 adbd c6f5 7abd 47a2 3ebd
000000d0: aa4a bebd cc00 8d3d 1634 ebbd 0ad2 28be
000000e0: be73 17bd b178 df3c f969 963d 4ae2 d43c
000000f0: 65c8 813c 84fc 6bbc 95c7 243e 98e6 5cbe
00000100: 69d3 d43c d595 cfbc ebfb 913d 18c0 47bc
00000110: 3939 f7bd 2012 97bd c5f8 65bd 8649 8c3d
00000120: 553a 18bb 9e8a 8ebd 2665 89be 0cce 8e3d
00000130: d220 8bbd fbaa 1e3e 18d1 313d 6d01 02be
00000140: c004 30be 5c84 dd3d 2f04 323e aa0a 6cbe
00000150: cac6 29bd 983d 40bd 41ae 63bd f22f 013d
00000160: 24ae babb a140 403d ac80 9e3d b98f 31bc
00000170: f653 8fbc c0df 70bd 4ecf 77bd 9af2 18bd
00000180: fcdd 16be 9c27 dfbd 017e f13c 8786 8fbb
00000190: d9cc 993d 1f2f dd3c e24c 7abe 876c 3abe
000001a0: 2a8c e1bc 3747 153d c270 51be 627e 84be
000001b0: d843 c13d a79d 82be dac6 82be 5d3c 12be
000001c0: 0e67 63bc 119d b3be ebc3 20bd b82e adbc
000001d0: c3b5 7fbe 5184 59be c6a0 1d3d 4dea 83be
000001e0: 1bdd 91be 0fb8 6d3c 0d93 77bd 7a49 89be
000001f0: 005a bc3c c423 623c 3578 423d 65a3 05be
00000200: 0250 84bd c9bd 7dbe 74c6 c83d 9ff5 f23d
00000210: ada3 023d ccbb f8bb 3263 aebd 263d a73d
00000220: 0490 4e3d 6d61 893d c689 98bb 1678 a4bc
00000230: 835c bf3d 0c3d f73c a2a5 0c3c cbc9 8f3d
00000240: 584e 96bb 2b9c ee3c 51ab abbd 120e 97bd
00000250: 73d5 b13d 27c1 be3c 3320 893d e0b5 893d
00000260: d266 14bd 7f8e 9abd 1104 cdbb 54cf 2dbb
00000270: 6c68 11be 8dea 25bd 1bed f83d 2d82 f6b9
00000280: 40e8 2dbe 1fa3 20bd 140c 963d a84c 533c
00000290: 9ffb 48be d952 2bbd e2df 5e3d c968 adbd
000002a0: 06b0 af3d f3fe a03c d620 48be cf00 8abe
000002b0: ae67 a33d b24a fd3c 7654 56be d7f4 4d3d
000002c0: f947 dbbc 9867 fdbd 17af 85be b3b9 d73b
000002d0: acae c1bc 06ba c6bb 5c87 5b3d 45d3 213d
000002e0: 9a1d c43c 9b2a 1b3d 7af4 34bd 656b b5bd
000002f0: b5f2 9b3d 969b 443d 393a b63d 381e bebc
00000300: 50e3 b23d 2aed 333d 4024 f63b 7bd7 e2bb
00000310: 7404 ba3d 9557 813a ee71 8a3d aefb 85bd
00000320: 82fb e03d c3a0 163e d845 50bc d620 483d
00000330: fae9 993d 1063 8a3c 6e4a 923d 3f15 e83c
00000340: b66c bbbe 6d81 2dbd 3c40 923d e7b7 4c3d
00000350: ee65 063e 343b 6bbd 2541 b5bd 1867 9ebe
00000360: 0a74 723d 0a0e fa3d 6d20 90bd 67bb 113d
00000370: 967f fb3c 349e 3cbd efd3 79bd f2e1 efbd
00000380: c021 d3bc cf29 49be 300c 8fbd f0dd 403e
00000390: ee10 0f3e 1539 ad3d 037c c53c b51b 46be
000003a0: 9aaf f9be 68a5 4dbe 965d 803e 3e1c 283e
000003b0: a547 85bb 4e8b 82bc 6e4e 35bd 4318 cfbd
000003c0: cce0 933a c104 8fbd e2f8 11be 5223 033d
000003d0: f588 7abb a3d8 9cbd 97cb 7c3d 86d9 0abe
000003e0: 1449 46bd a93d 0bbe 75e2 e5bd 6fb2 e6bd
000003f0: 16d7 c4bd a311 793b ee45 d8bc 92a5 d1bc

fc1.bias f4 [15]
0.07080954 0.06863982 0.07515302 -0.02083468 -0.07907571 0.062021725 -0.017046642 0.011949301
-0.08566257 0.041234184 -0.05689448 -0.007653605 0.026473913 -0.058077984 0.04007969
00000000: 9804 913d 0993 8c3d d4e9 993d 7ead aabc
00000010: 72f2 a1bd 7e0a 7e3d 66a5 8bbc 00c7 433c
00000020: dc6f afbd 2de5 283d 300a 69bd 18cb fabb
00000030: d2df d83c 2ee3 6dbd 9a2a 243d
